Project3/checkpoints/LeNet5/epoch-4.pth (torch, 243143 bytes, 10 tensors)

conv1.weight f4 [6, 1, 3, 3]
00000000: a74a c03e fd4b a63e 1c03 663e 6339 f13d
00000010: e38d 3c3e b595 86bd 50f6 e73e bb0f 033f
00000020: 4fb4 6d3e cf77 afbc 2396 9a3e fc5c 38be
00000030: 8ee7 c93e bf5c b83e 4f83 713d e4b8 0dbe
00000040: e301 0ebe b9c4 3abd af44 353f 9565 493f
00000050: 3c89 323f 1f70 4f3f 59c8 5a3f 6d44 0f3f
00000060: ebbe 0a3f a832 983e 1375 82bc a90d 473e
00000070: b20e ab3e 0710 8b3d 474e 1bbd dac9 6ebe
00000080: 778e 3f3d f6f5 55bd 0989 8cbe f02a ebbc
00000090: 45de 423e a053 49be e70f 813e 51cc b73e
000000a0: 96a6 203e af05 abbe 8d63 83bc d1fb 5c3d
000000b0: 6600 9b3e 5fe8 1f3d d85f a5be 9f25 83be
000000c0: 920c b43e 022a 2ebe aa48 173e 2784 583e
000000d0: 0e7e d83d 9b4c d7bd
0.37556955 0.3247985 0.22462124 0.11778524 0.184135 -0.06571523 0.4530511 0.5119588
0.23213314 -0.021419434 0.3019267 -0.1800422 0.39434475 0.3600826 0.058963116 -0.13840061
-0.13867907 -0.045597766 0.7080793 0.78670627 0.69740653 0.8103046 0.85461956 0.55963784
0.5419757 0.29726148 -0.015924966 0.19438805 0.3340965 0.06790166 -0.037916448 -0.23319188
0.046766724 -0.05223652 -0.274483 -0.028706998 0.19030102 -0.19660807 0.25207445 0.3589807
0.15688547 -0.33402774 -0.01603868 0.05395109 0.3027374 0.039039966 -0.32299685 -0.2561464
0.3516584 -0.17008212 0.14773813 0.21144162 0.10570918 -0.10512658

conv1.bias f4 [6]
00000000: 5d4f 1dbd d5b5 b53d 358f 073f 3586 2e3e
00000010: e14d 1d3e dcb4 aaba
-0.038405765 0.08872572 0.5295289 0.17043383 0.1536174 -0.0013023871

conv2.weight f4 [16, 6, 3, 3]
00000000: af7d 15be 9199 443e ac83 5abd 4898 98bd
00000010: 672f 293e 1d8e 683c 0321 0d3e f0d8 b83d
00000020: ed0b 473d 3859 6c3d 1fd9 e93d 0415 253e
00000030: 0b78 663d 34ec f93d 22d8 8e3c beae cbbd
00000040: 118f 933d 3549 d83d 740a 6dbe 9d77 963e
00000050: 4a53 aa3d 24f4 913d 6266 913e 6b03 41be
00000060: 0028 833e a394 f63d b93f 85be 60ee 01be
00000070: c4e5 463d 7674 153e 3b01 dbbd d864 d5bd
00000080: d083 acbd e3c9 7abd 37bd 40bd 8269 9abd
00000090: 8f80 a63d c630 e23b 9bb7 043e ad03 13be
000000a0: 83e8 163e e414 59bd 5983 09bd 7db9 a23d
000000b0: b287 993d f3ae 15bd 4574 c03c b094 f23d
000000c0: 2b9c 6ebd 6016 d5bd 7979 883d 2d0c 80bd
000000d0: bd22 dfbc 1605 853d d0fe 2fbb 92b6 b53d
000000e0: a61f bbbc e9c0 b2bd 3a83 e43c 415b 443e
000000f0: 136d c8bd 02af 28bd 78a5 68bb 9e5d cb3d
00000100: e7ef e33c b335 af3d 2abb 03bd f92a 85bd
00000110: bef6 e3bd 683d 9ebd 479b f6bd 582d d43d
00000120: 6b20 b8bd e45b 2b3e 2c3a 193c 4db4 593d
00000130: ad7c 363e 6803 5dbc 92f3 6dbe 0265 043d
00000140: 3f31 923d f5b6 d53c 017f 973d f138 713c
00000150: dd72 923b 8698 6bbd ad76 003e 0e85 68bc
00000160: 37c6 03bd a6e5 8abd 69a1 bcbd 897f 9e3b
00000170: 015b 953d f72e b13d 49a6 a5bd a5d1 a03d
00000180: 530a 383d 1fb0 1fbd 74b0 b63d 5d63 753c
00000190: 47bc d0bd d1ff 983d dc2d acbb 891e f7bd
000001a0: 5d8e 9e3d f3e9 743c 7df7 40bd 0227 e1bd
000001b0: 4c2e c6bc bcb7 433e 3e48 b83d e961 e1bc
000001c0: 9d29 45bb d895 dcbd ded2 49be 8b03 8d3c
000001d0: 888b 9abd 7971 cabc 8f3f b93d 92ea 41bd
000001e0: 28a2 e53d 6516 7dbd afb8 0a3e 0e23 533d
000001f0: ccf5 babd 2312 24bd df4e 633e 93c1 a13e
00000200: 92bf 823e 4a26 c7bd d944 d9bd 9787 ed3d
00000210: 0c46 0dbe 6deb a0be 8919 67be b525 8a3d
00000220: f7c8 a93d 494f cdbc a5bf 76bb 175d c13c
00000230: 1656 adbd 8b76 5ebb 97de 033e a103 89bd
00000240: 2072 af3d d814 173e 7618 a93c 83f4 203d
00000250: 15d9 7cbd 29d1 92bd 517b a2bd 600a 803d
00000260: a236 a53d 52f1 c4bd fb6b 7fbd 2a43 1cbd
00000270: 4573 dc3d b596 b1bc 8485 f4bd ed19 153d
00000280: 084d 9bbc 4b5d cebd 341a 87bb e186 173e
00000290: 05c0 a53d c9d6 a93d 0bb9 07be cae4 263d
000002a0: 85d2 b0bd 3bd1 923d 35c8 a3bc dcb4 ca3d
000002b0: 89ad 533c c449 b5bd 8c79 aebc 607d 0bbe
000002c0: ed3b 59bd e3ea dabb 16ee 163d 1e7a 1dbd
000002d0: ac9b 373e 9c2c ad3d a635 523d 9a93 863d
000002e0: 4497 e6bc f3b9 f2bd 80be 18be 4e58 6ebd
000002f0: 6326 1cbe 4933 b1bd 644c 20bd 815d 6cbd
00000300: f805 783d 0c55 e2bd e056 9dbd 5d55 d2bd
00000310: aff1 1e3d a43e 073e ccf5 d03d b499 2c3d
00000320: b224 993c da1e 9e3c c1dd c2bd 50f8 abbd
00000330: f5a3 c63d c684 413d 7597 81bd 6722 e0bd
00000340: 1e78 1abc b8e5 03be 7b2a 88bd 95e2 61bd
00000350: c469 153c 3f6d 6d3d 2922 f43c 5fc1 d6bd
00000360: 2916 e9bd 7844 2c3b 6c78 d03d 610e a9bd
00000370: 2524 273d dfc9 f5bd 424f 17bc ea6b dcbc
00000380: 9c56 a2bd 27f0 883d 1102 1d3e 4356 ebbc
00000390: fb53 763c c895 05be 043c f6bd 3764 b9bd
000003a0: cd7e 34bd 20ad f73c da94 8e3e 142c a53e
000003b0: ab2d 3d3e 5b17 53be d1d9 7cbe 07f3 013c
000003c0: ace8 bbbd ce3c 40bc 5b79 eabc e894 82bc
000003d0: 9ff8 ea3d 8600 d5bc 944b 753d 64b0 083e
000003e0: 96af 693d f2af 343d 5d8a 31bd 3724 4bbd
000003f0: 6dbb 143c 8077 c13d 91fd ec3c 2055 fcbd
-0.14598726 0.19199206 -0.05334823 -0.0745092 0.16521989 0.014194039 0.13782124 0.090257525
0.048595358 0.057702273 0.11418366 0.16121298 0.056266826 0.12203255 0.017437045 -0.09945439
0.07205022 0.10560838 -0.23148519 0.29388133 0.083166674 0.07126644 0.28398424 -0.1884896
0.25616455 0.12040069 -0.2602518 -0.12688589 0.048558965 0.14595208 -0.10693594 -0.10419625
-0.08423579 -0.06122769 -0.04705545 -0.07539655 0.08129989 0.006902787 0.12960665 -0.14356871
0.14737134 -0.05299844 -0.03357253 0.07945535 0.07496585 -0.036543798 0.023492942 0.11844766
-0.058254402 -0.10404658 0.06663794 -0.06252322 -0.027238244 0.06495111 -0.002685476 0.08872713
-0.02284224 -0.08728201 0.027894605 0.19175436 -0.09786429 -0.041182525 -0.0035499018 0.099299654
0.027824355 0.08555164 -0.032160915 -0.06502337 -0.11131047 -0.07726556 -0.120413356 0.10360211
-0.08990558 0.16734272 0.009352248 0.053150464 0.17820998 -0.013489582 -0.23237446 0.03232289
0.07138299 0.026088217 0.07397271 0.014723049 0.004469259 -0.057518505 0.12545271 -0.014191879
-0.032171454 -0.06782083 -0.09210474 0.0048369807 0.07292748 0.08651536 -0.08088357 0.078524865
0.04493172 -0.03898632 0.089203745 0.014977303 -0.10192161 0.07470668 -0.0052544903 -0.12066371
0.077419974 0.014948356 -0.047111023 -0.10993768 -0.024191998 0.19113058 0.08998154 -0.027512508
-0.0030084618 -0.10770768 -0.19709346 0.017213603 -0.07546145 -0.024712311 0.09045326 -0.047342844
0.112125695 -0.061788935 0.13547014 0.051547103 -0.09128913 -0.04005636 0.22198056 0.31592998
0.25536782 -0.097241 -0.10608835 0.11598127 -0.13796252 -0.31429616 -0.22568335 0.06745473
0.08290284 -0.02506222 -0.003765085 0.023603959 -0.08463685 -0.0033945169 0.1287788 -0.06690145
0.085666895 0.14754045 0.020641547 0.039295685 -0.061730463 -0.071688004 -0.07933677 0.06251979
0.08067061 -0.09616341 -0.062358838 -0.03814999 0.107641734 -0.021678308 -0.119395286 0.036401678
-0.01895763 -0.10076388 -0.0041229967 0.14797546 0.080932654 0.0829292 -0.13254182 0.040745534
-0.086339034 0.07168814 -0.019992927 0.098977774 0.012919792 -0.0885196 -0.021298192 -0.13622046
-0.053035665 -0.0066808327 0.03684815 -0.03844654 0.17930478 0.08455774 0.051320694 0.065711215
-0.028148301 -0.11851873 -0.1491642 -0.058189683 -0.15249018 -0.0865236 -0.03913535 -0.05770636
0.060552567 -0.11051378 -0.07682586 -0.10270188 0.038804706 0.13207489 0.10203132 0.04213877
0.018694256 0.01930182 -0.095149525 -0.08396971 0.09699241 0.047245763 -0.06327716 -0.10944062
-0.009428052 -0.128806 -0.066487275 -0.055147726 0.009119455 0.057965513 0.029801445 -0.10486101
-0.1138118 0.0026285928 0.10179219 -0.08254696 0.040805954 -0.120013945 -0.009235205 -0.026906926
-0.07926676 0.066864304 0.1533282 -0.028727656 0.015034671 -0.13045418 -0.12023166 -0.090523176
-0.04406624 0.03023392 0.2784794 0.3226019 0.18474452 -0.20614378 -0.24692465 0.007931477
-0.09175238 -0.011733247 -0.02862232 -0.015940145 0.11473202 -0.026001226 0.05988653 0.13348538
0.057052217 0.044113107 -0.043344844 -0.049595084 0.009077889 0.09446621 0.028929504 -0.12320924

conv2.bias f4 [16]
00000000: 4cf1 87bb dded bd3d 608d b7bd 57e2 b9bd
00000010: fad3 bcbd f5bd 69bd 5d87 d73d bf8d 40bd
00000020: f0aa 9c3d 49a8 a23d 9217 793d 2576 c63c
00000030: 1a03 f93d ea19 1dbd 040b 853d aa80 cabc
-0.004148638 0.092738844 -0.08962512 -0.09076374 -0.09220119 -0.057065923 0.10523865 -0.04701018
0.07649791 0.07942254 0.060813494 0.024226258 0.12158795 -0.03835479 0.06496242 -0.024719555

fc1.weight f4 [120, 400]
00000000: de2d 3e3c 501c 783c 9f7b 4ebc f48a 313d
00000010: 915a 04bd ff92 c2bc 8541 753b d084 8cbc
00000020: 18d8 ca3c 76c7 19bd b31f 71bc 5df5 e0bc
00000030: 62f1 a3bc 09af 503c 61a3 cabc 4626 3c3c
00000040: 1fc5 c13d 08db b23d f26f 8d3c d212 083d
00000050: a5fb c13c 2667 3e3c 4316 273d efed 2cbd
00000060: ca70 78bd 7bbb a03a 7264 513d bbc3 803c
00000070: 51ea 3d3d d55e adbc d393 bb3c 83c0 0b3c
00000080: 9cf2 30bc cbfa 0c3d 47a1 c83c 21ed f93c
00000090: d9d2 b5bc 08d4 a2bc 21f6 7a3c 8095 1ebd
000000a0: 9ae3 f23c b375 a03c dd13 05bd 39d4 043c
000000b0: f775 03bd 0149 3a3b 13eb 943c 312b eabc
000000c0: 1b8c d0bc f79c bf3c 160e 963c 07a5 243d
000000d0: c27b 923b ed21 05bd 081e a2bb 54cb 08bd
000000e0: bafd 42bd 34a0 453d 7652 423d 10a6 443d
000000f0: 3bee e6bc 3e45 2e3c 72bb d63c 4a17 763a
00000100: 4d10 533d f3b7 f03c ad5c 99bd 8580 4d3c
00000110: fa22 b5bc c696 b73c 62be 4cbd 86f3 8b3c
00000120: 6e6e edbb b139 db3b 0622 3f3d c8d1 893c
00000130: 79bd 11bd 839e e43c f7f1 0cbc faa8 a53c
00000140: a3bd dbbc 0aaf d1bc 274b 0c3c 83cd 343d
00000150: 65ae 2dbd bb22 b93b 0f7c f2b9 9eb6 2e3d
00000160: 0bd4 843c 1009 e63c 87a4 0fbd 07fb 1e3d
00000170: 515d d33c b183 b0bc 6447 1a3d 571b a6bc
00000180: 168c 72bc 1f7b 5b3b 04d7 3bbc 82f2 c83c
00000190: befb 3bbd 670b 97bb 0b91 253c c0f8 463d
000001a0: 4b92 283d 9217 263c 7296 44bd 8548 06bd
000001b0: 77e5 063d c351 cdbc e700 49bd 2dbc bf39
000001c0: 751c 9dbc 875b 1e3d 28d8 723c 3eba 2c3d
000001d0: 1f06 983b 6eab 823b f050 b4bc e10e 1a3c
000001e0: 65cf 0a3d fa6c 90bd bc09 573c eb45 573c
000001f0: 3ed3 213d 28fd 273d 9132 533d 11de 7fbc
00000200: d317 2a3c e7f7 2bbd f3c9 4dbd 275a 0f3b
00000210: a527 4b3d a72b 493d d2bc b1bb ca91 0abc
00000220: 4c94 513c 765e 183c b8c2 5dbd 3330 e7bc
00000230: 7221 8b3c 86a4 113c e71c 843c 1fb4 013d
00000240: c651 423d 50e6 223d 1531 603b 73ff ffbc
00000250: 44a5 ffbc 0cb6 bb3c 2f1b 0c3a 0b58 e73c
00000260: bdd5 34bd 12fa 28bc 94d1 cfbb c999 61bc
00000270: 973a 70bc 83c3 d0bc 7f41 9e3c ecc3 0bbd
00000280: 4d42 d3bc 0a01 9a3c c89e 63bc 746f 42bd
00000290: e88d da3c 570f 30bd debd 343d 5898 76bc
000002a0: a4a2 b0bc 8568 1e3d 9b87 713c 6d76 c43c
000002b0: 7525 44bb 8476 02bd 79c9 0e3d 3722 ff3c
000002c0: a0ec 51bb 8439 283c e887 75bb 4c31 52bd
000002d0: 9dc4 c6bc 57a6 8b3c f641 283d bf0f fd3c
000002e0: d1e3 8d3b e5cb 0a3c 38de 7ebc 637b 8bbd
000002f0: b464 6cbc 1430 af3b 9ff5 d1bc 9240 78bd
00000300: eb32 283c 3b4d 20bc 4238 c63c 1e98 c1bc
00000310: a010 62bc 4bda 963d 60f5 a13c 2c72 05bc
00000320: be15 99bc 1ae7 103d ad0b a139 2fb6 2f3d
00000330: b1ad 413c afcd 803a e47b 963c ebaf 5a3d
00000340: 2eb6 4dbd f9bf f73c 192c 07bd 9636 1b3c
00000350: 4d80 d9bc 19c2 fabc 8ae2 593d 37f1 ba3c
00000360: 3b12 c8bc fc3c 163c 6408 a9bb 6329 36bd
00000370: 61af 673d 33f9 253d 2409 9bbb c2ca a5bc
00000380: cfed 8c3b 41bd 10bc be9c 233d bccf d93c
00000390: 8219 083d 0aac 43bd a44a 2b3d 75ac 7d3c
000003a0: 1d77 d03c 755f bdbc 00c1 5abb e107 fabc
000003b0: 925d 9a3c 4d43 0fbd 939f edbc 8b43 47bd
000003c0: d5d5 2e3d 1b59 f43c 797d 1abd dc06 32bd
000003d0: 1a15 0c3c 3589 773c d8f1 3bbd ddb3 36bd
000003e0: 1f8c 233d 4c77 1abb 934c af3c dc7e 933c
000003f0: fc4b 94bc ecd8 2c3d addd 9ebc dbfc c43c
0.011607615 0.015143469 -0.012602716 0.043345407 -0.032312933 -0.023751734 0.0037423086 -0.017153174
0.024761245 -0.037543736 -0.01471703 -0.027460748 -0.020012561 0.012737044 -0.024736108 0.0114837345
0.09461426 0.08733183 0.017265294 0.033221073 0.023679564 0.011621272 0.040792715 -0.0422191
-0.06065444 0.0012262905 0.051121183 0.015718332 0.04636604 -0.021163383 0.022897637 0.008529785
-0.01080003 0.034418862 0.024490966 0.03050858 -0.022195267 -0.019876495 0.015317471 -0.038716793
0.029649545 0.019587373 -0.032489646 0.008107238 -0.032094922 0.0028424861 0.018178498 -0.028585048
-0.025457432 0.023390276 0.018317264 0.040196445 0.0044703195 -0.032503057 -0.0049474277 -0.033397034
-0.047605254 0.048248485 0.047441922 0.048009932 -0.028189769 0.010636626 0.026212428 0.00093876256
0.051529218 0.029384589 -0.074883796 0.0125428485 -0.022111405 0.022410762 -0.04998625 0.017083894
-0.0072458303 0.006690227 0.046663307 0.016823664 -0.035581086 0.027907616 -0.008602611 0.020222176
-0.026823824 -0.02559616 0.00856284 0.044141304 -0.042402644 0.005649892 -0.00046250268 0.042654626
0.016214391 0.028080493 -0.035069015 0.038813617 0.025801333 -0.02154717 0.03766574 -0.020276709
-0.014803907 0.0033490134 -0.011464838 0.0245297 -0.045894377 -0.0046095136 0.010105382 0.04857707
0.04115514 0.010137456 -0.04799504 -0.032784004 0.03293368 -0.025063401 -0.049073126 0.0003657056
-0.019178608 0.038661506 0.0148220435 0.042169802 0.0046394016 0.003987721 -0.02201125 0.0094029615
0.033889193 -0.07052036 0.013124879 0.013139228 0.039508097 0.041012913 0.051561896 -0.01561691
0.010381657 -0.041984465 -0.050241422 0.0021873803 0.049598355 0.049113896 -0.0054241205 -0.00845761
0.012791704 0.009299865 -0.054140776 -0.028221225 0.016983721 0.008889323 0.016127063 0.031665917
0.047441266 0.039770424 0.0034208943 -0.031249737 -0.031206734 0.022913955 0.0005344627 0.028240224
-0.04414915 -0.010313528 -0.0063421223 -0.013769575 -0.014662406 -0.025483852 0.01931834 -0.034122393
-0.02578845 0.018799324 -0.013892837 -0.04746957 0.026678994 -0.04298338 0.044126384 -0.01505097
-0.021561928 0.038673896 0.0147418035 0.023982251 -0.0029929553 -0.031851307 0.034860108 0.031144245
-0.0032031909 0.010267619 -0.003746504 -0.051316544 -0.024263674 0.01704709 0.04107853 0.030891297
0.0043301363 0.008471464 -0.015555911 -0.068106435 -0.014428306 0.0053463075 -0.025629817 -0.060608454
0.010266046 -0.009784038 0.024196748 -0.023632105 -0.013797909 0.07365855 0.019770324 -0.0081448965
-0.018687125 0.035376646 0.00030717012 0.042898353 0.011821196 0.0009826923 0.018369623 0.053390425
-0.05022257 0.030242907 -0.03300104 0.0094734635 -0.026550436 -0.030610131 0.05319456 0.022820098
-0.024422755 0.009169813 -0.005158471 -0.044473063 0.05656374 0.040520858 -0.0047313143 -0.020238284
0.00430081 -0.008834184 0.039944403 0.026588313 0.03322745 -0.04777149 0.04181923 0.0154830115
0.025447423 -0.023116807 -0.0033379197 -0.030521335 0.018843446 -0.034976292 -0.029006755 -0.0486484
0.042684395 0.029827645 -0.037717316 -0.043463573 0.008549953 0.015108396 -0.045884937 -0.044605125
0.03992855 -0.0023569642 0.021398818 0.018004827 -0.018102638 0.04219906 -0.019392813 0.024046352

fc1.bias f4 [120]
00000000: aa98 443d 8b4e d53a ba89 f9bc 377c 393d
00000010: 584c 853b 9427 423d 0ee5 d63c 6b6a 8e3c
00000020: 2df3 de3c b14e 1bbd 3fe7 b1bc 44cb df3c
00000030: 008b 83bc c1d0 2abb c80c ec3c 63b2 e63c
00000040: 71bd 22bd a2eb 5f3d af9c f1bb 2d72 f9bc
00000050: ea68 0e3d 38c8 05bc cfff 25bd ca47 293c
00000060: 9150 133c ea2c fdbc 853c debc 4fe4 fbbc
00000070: 6019 ed3c 0095 0f3c 2a24 aebc 77e1 2a3d
00000080: f41e 213d 5ef3 2abd 7617 033d 2fca 4f3d
00000090: 47f7 553d f019 cf3c e9b6 c73c 491f d43c
000000a0: 7d34 973c 2370 fb3b 867a 0c3d d597 89bc
000000b0: be38 fcbb a09b 693c 1c85 e93c 65d1 b63c
000000c0: 10e2 26bd b9c3 20bd 625c 71bb a3cb 5a3d
000000d0: e3da 42bd 896e 123c a228 5c3c 77c2 c43c
000000e0: dbdd 203d 9b6b ffbc 05d3 113d 23ec d8bc
000000f0: 5eea 783c 3639 2dbd e183 eb3b 27e8 10bd
00000100: 4092 b1bc 0371 e73c b3fe 433d eaa2 dc3c
00000110: 511f d2bc 4b8c 593b 31a7 ea3c 92f6 193d
00000120: 946b f9ba 19e0 b23c 2970 e1bc 314f 3a3c
00000130: 5c8f 10bd 8d1c a2bc 7efe 443d b26f febb
00000140: 3655 97bc c144 85bc a46b 28bd 71d6 26bd
00000150: 41be 0fbc a0ee 2a3d fa18 3b3d 2827 27bd
00000160: 7826 1f3c 4099 df3c ce04 0bbd c775 31bd
00000170: e4b4 8ebb 7ced 303d ac76 293a 0458 2d3d
00000180: bfe6 0cbd 1876 863b 9565 bc3c 74af 0fbc
00000190: a7d8 363d e143 3dbc 5d81 d13c 5638 38ba
000001a0: a9fe 54bc bd52 bb3c e5f1 073d 4cf1 953a
000001b0: 95af 6abc 20e8 c9bc 36be 813c 3643 eebc
000001c0: 9a8e 3d3d 786e ea3c c20b 03bc fba0 ffbb
000001d0: b0ee 8d3c 2bb9 a0bc 6a60 71bb 497c aebc
0.047997154 0.0016274018 -0.030461181 0.045284476 0.004067939 0.047401026 0.026232269 0.017384728
0.027215565 -0.037916843 -0.021716712 0.027318604 -0.016057491 -0.0026064368 0.028814688 0.028161233
-0.039731447 0.054668076 -0.0073734145 -0.030449951 0.034768023 -0.008165412 -0.04052716 0.010332057
0.0089913765 -0.030905206 -0.027128467 -0.030748514 0.028942764 0.008763552 -0.021257479 0.041718926
0.03933616 -0.041736 0.032004796 0.050729927 0.052237775 0.025280923 0.02437921 0.025893824
0.018457646 0.00767328 0.034296535 -0.016796032 -0.007697194 0.014258295 0.028505854 0.022316644
-0.040742934 -0.039249156 -0.0036828746 0.05341686 -0.047572028 0.008937486 0.013437422 0.02401851
0.039274078 -0.03117924 0.035601635 -0.026479786 0.015192596 -0.04229089 0.007187352 -0.035377648
-0.021676183 0.02825213 0.047850322 0.026933152 -0.025649698 0.0033195193 0.028644176 0.037588663
-0.0019029253 0.021835374 -0.027519302 0.01137142 -0.03529297 -0.019789005 0.048094265 -0.00776478
-0.018473249 -0.016268136 -0.04111828 -0.04073185 -0.008773387 0.041731477 0.045678116 -0.040808827
0.0097137615 0.027294755 -0.03394013 -0.04332521 -0.00435506 0.043195233 0.0006464522 0.042320266
-0.034399744 0.0041034333 0.022997657 -0.008769859 0.04464021 -0.011551828 0.02557438 -0.00070274377
-0.013000169 0.022866601 0.033189673 0.001143971 -0.014324089 -0.024646819 0.01583777 -0.029084783
0.046278574 0.028617129 -0.007998409 -0.007801173 0.01732573 -0.019619545 -0.003683115 -0.021299498

fc2.weight f4 [84, 120]
00000000: 90e6 5b3c fe1d 573d 1d76 fa3d 152c 28bc
00000010: 986d a23d 7722 97bd cbdf 963c 228b c1bd
00000020: 63ac aa3c df38 c8bd 91a8 87bd 70e5 ac3d
00000030: cbea 1e3d 57e2 943d 6d7f 5d3d 6433 e03d
00000040: d712 433d 4750 79bd aabe adbd fe80 bd3c
00000050: 7a71 c3bc 7c3b 26bc 51c0 df3b 95d9 9fbc
00000060: 4e99 263d baa8 89bd 22fd 313b ddc0 2e3d
00000070: 95c9 363d 1a86 943d 888e 5fbc 750b eebd
00000080: 8941 b63d 20ca cc3d 6201 833c 0aae a2bd
00000090: 99a1 ee3c d468 c33c b11d 893d 9fc3 3abd
000000a0: a940 98bd 5855 0f3d c536 87bd 6f41 373d
000000b0: fd71 e43c eae9 8e3d cd19 3dbd e4c1 9fbd
000000c0: 6950 cfbc df7e 16bd 74d6 82bc df27 0d3d
000000d0: 0ec9 9cbd b550 403d d818 cc3d d78f bebd
000000e0: 2d7a 88bc ebd4 7e3c a97b b83c a7f8 a53c
000000f0: 9905 e3bc 62b5 bb3d 4728 813d 8b51 86bd
00000100: 2a48 023e 2abb 893d 5fcf b2bd 36db 0ebd
00000110: 7cd6 3ebb d314 863d e202 11bd d84f b53d
00000120: 354c ee3d 84ca 26bb c467 e5bd 3761 773a
00000130: a49d bdbd f822 81bd 4e2c 823c 3f37 75bd
00000140: 8b05 eeb9 1c1c 1abd c5fe c4bd 91b4 ea3c
00000150: 75a8 8ebc 3545 25bd 6095 023d 5be4 d0bc
00000160: cae4 3abc 149c 8a3d b27e c03d 8261 02bd
00000170: f84d a63d 5df0 9c3d 7151 8c3d a4b8 ed3c
00000180: 1f74 ac3d 9634 19bd 8e60 1cbd 0828 133d
00000190: 5934 8b3d f11d a33d 000f 14bd 2a99 d43d
000001a0: 9c15 20bd e6bf 0abd d735 85bd 64cd 95bd
000001b0: 29c2 84bd 4041 06bd 1023 6fbd 5d75 35bd
000001c0: 7b92 72bd 30a8 b43d 8579 e03c ce18 91bc
000001d0: f356 02bd 1e5a 143d 1d5f 423d 4fc7 413b
000001e0: 8cdf 0a3d 0aaf 05bd efab 47bd 91e9 8d3d
000001f0: 1aa8 5fbd b3f7 9ebc be38 b6bd 93d9 f23c
00000200: ee23 6a3c 0f8b 1f3b 88b1 e0bc 416c 99bb
00000210: db17 823d 3808 c6bb 66af 3a3a d194 22bc
00000220: 3c19 253a db5d 11bd 89ca 393d be91 0cbc
00000230: cd9e 913d 7aff 80bd e5b1 84bc 8612 99bd
00000240: a9c9 033d 6aca b1bd ddcd 7a3d 8592 6abd
00000250: 85d6 983d e273 27bc ff7b b5bd 8879 b9bd
00000260: 20c0 c8bc e580 c03d 6c98 313c 008b ca3c
00000270: 8867 3abd edc7 0fbc 6cb6 793d 2061 5e3d
00000280: 5dfa 6abc 623e 79bd 0424 a73b eba0 28bd
00000290: fc88 b13c 777d edbc 8a7d 493d 0a67 373d
000002a0: 1fe3 fabc bec6 1c3d 7055 823d 104d b13d
000002b0: 7007 903d b84b cb3d 818e 723c 2d6d 75bc
000002c0: 9f91 a3bd 9ca2 85bd 4f89 733d ba69 0abd
000002d0: b002 8ebd 1182 9abd b95e 113d c79d 6e3d
000002e0: 8ec1 cdbc 2ede a2ba 9a46 b33d 6828 34bb
000002f0: cd20 55bd 6eeb 0dbd 0f96 953d 8f1e bcbc
00000300: e42e 2cbd 544e 853c 2d87 c23d 22c3 8bbd
00000310: 4e83 2cbd 4f2c f63c 8d69 093b 1441 b0bd
00000320: 1a9b 36bd b595 323c d351 123b bb06 9a3d
00000330: 71b1 19bd b6a1 3e3c 0d9f abbd fd11 c93c
00000340: 527d c33d 39e5 943d 2a70 94bd 7d65 413d
00000350: 0148 0fbd edde 53bd f063 aabd 3f60 84bd
00000360: c3c5 ae3d cf15 b2bd 7274 d0bb c871 2abd
00000370: 42a3 a2bd 94a6 5ebd f940 92bd 6722 98bd
00000380: a7bf 8bbc c1b3 ec3c af19 45bc 29c5 ca3c
00000390: c1d8 393d baf0 3eb9 d9c5 e23c 14b2 9bbb
000003a0: 2136 dcbc e752 743d 5ee6 983a 9565 7dbd
000003b0: c8a0 7bbd 719c 5ebd dfd6 b43d 9ecc f4bc
000003c0: 28b2 5bbd fd61 bd39 728b 8d3d 3ee6 a43d
000003d0: e94a d23b 40a6 d23d d794 153d c83f 153e
000003e0: e0cb a63d 9dab 4e3d d4dc 30bd 3cfb 033e
000003f0: 010c 813d a0e8 753d ac07 e93c ce91 88bc
0.01342167 0.052518837 0.122295596 -0.010264416 0.079310596 -0.073796205 0.01841726 -0.094503656
0.020834154 -0.09776472 -0.06623948 0.08442199 0.038798135 0.072697334 0.0540766 0.10947302
0.04762539 -0.060867574 -0.08483632 0.023132797 -0.02385782 -0.010146018 0.006828346 -0.01951293
0.040673546 -0.06721635 0.0027158936 0.042664398 0.044625837 0.0725214 -0.013644822 -0.11623279
0.088992186 0.0999949 0.01599187 -0.079433516 0.02912979 0.023853697 0.06695116 -0.045596715
-0.07434208 0.0349935 -0.06602243 0.044740137 0.027886385 0.06978209 -0.046167184 -0.078006536
-0.025306897 -0.036742087 -0.0159714 0.034461852 -0.07655536 0.04695197 0.09965676 -0.09304779
-0.01665982 0.015553693 0.022519903 0.020260168 -0.02771263 0.091654554 0.063065104 -0.06558522
0.12722841 0.06725152 -0.08730959 -0.034877025 -0.0029119542 0.06546941 -0.03540314 0.088531196
0.11635629 -0.0025450299 -0.11201432 0.00094367884 -0.09258583 -0.06305498 0.015890267 -0.05986714
-0.00045399027 -0.037624463 -0.09618906 0.028650554 -0.017414311 -0.040349204 0.031880736 -0.025499513
-0.011407087 0.06768051 0.09399165 -0.031831272 0.0812034 0.07663033 0.06851471 0.029018708
0.08420586 -0.037403665 -0.03817802 0.03592685 0.06797094 0.07964695 -0.036147118 0.10380776
-0.03908311 -0.033874415 -0.0650441 -0.07314566 -0.064823456 -0.03277707 -0.058383048 -0.04430138
-0.059221726 0.08821142 0.027401695 -0.017712023 -0.031821202 0.036218755 0.04745399 0.002956826
0.033904597 -0.032637633 -0.048747953 0.06929315 -0.054603674 -0.019405222 -0.088975415 0.029644763
0.014290793 0.002434436 -0.027428403 -0.0046820943 0.06352206 -0.00604346 0.00071214733 -0.009923176
0.00062980107 -0.0354899 0.04535917 -0.0085796695 0.07110367 -0.06298728 -0.016198108 -0.07474236
0.03217474 -0.086811855 0.061231483 -0.05726864 0.07462791 -0.0102205 -0.08861541 -0.09056383
-0.024505675 0.09399585 0.010839563 0.024724483 -0.04550889 -0.008775693 0.060964987 0.054291844
-0.014341918 -0.06085051 0.005100729 -0.04116909 0.021671765 -0.02899049 0.04919199 0.044776
-0.030625878 0.038275473 0.06363952 0.08657277 0.070326686 0.099265516 0.014804483 -0.014979643
-0.079867594 -0.06525156 0.05945712 -0.033792235 -0.06934106 -0.075443394 0.035490725 0.058255937
-0.025116708 -0.0012425834 0.087537006 -0.0027489904 -0.052033234 -0.03464835 0.07304012 -0.02296379
-0.042036906 0.016272701 0.09498439 -0.06824328 -0.04211741 0.030050425 0.0020967454 -0.08606163
-0.04458151 0.010899951 0.0022326603 0.07520815 -0.037522737 0.011635235 -0.08379946 0.02454471
0.09545387 0.07270283 -0.07247956 0.047215927 -0.034980778 -0.05172627 -0.08319843 -0.0646367
0.08533814 -0.08695566 -0.0063615376 -0.041612417 -0.07941295 -0.05435808 -0.07141299 -0.07428437
-0.01705916 0.028894307 -0.012030049 0.024752216 0.04537273 -0.0001820949 0.027682232 -0.004751453
-0.02688128 0.059649374 0.0011665334 -0.061864454 -0.06143263 -0.054348413 0.08830046 -0.029882725
-0.0536367 0.00036121896 0.06911363 0.08051728 0.0064176214 0.10285616 0.036518898 0.14575112
0.08144355 0.050456632 -0.043179348 0.12888807 0.06301118 0.0600363 0.028446041 -0.016671088

fc2.bias f4 [84]
00000000: d4a7 48bc 6e87 8e3d 2ea1 9a3b f74c 1d3d
00000010: fcad 893c 12c9 803d c612 703c e3f5 793d
00000020: 1a1d b3bd ccb1 19bd ea71 573d 0259 193d
00000030: 6ca4 273d 0a1e 583b a942 d93c 674e b5bd
00000040: fe39 18bd edc8 5d3c e930 563d adac 5d3d
00000050: 6f33 13bc b817 153d 63a4 5dbd 4c1e 12bc
00000060: 8b66 49bc e79e 19bd b5a4 23bb 7fa2 d13d
00000070: 99f0 ce3d f9c5 e63c 7cf1 373c 4026 4bbc
00000080: 3a9d eebc 2407 2d3d fc9f 5ebd a646 813b
00000090: 511f c6bc ab17 bebc 4d18 12bd f698 9c3d
000000a0: df8f 8e3c d54d d9bc d628 0d3d ae05 9abd
000000b0: fd86 473d ec00 b3bc 5805 72bd b406 41bc
000000c0: 3c1f ab3c 766a 71bc 8968 debc 9f12 3c3d
000000d0: 3743 52bc 878c 2f3d 816e 85bd 912f a7bd
000000e0: 9d28 1abd 03a2 9e3d 49fa 473d ec57 503d
000000f0: 351b 91bd 005a 453d 6d37 013d a3ba 4ebd
00000100: 9022 be3d dee4 e73a ba08 b83b 4f75 bc3d
00000110: f909 723d 84fb 8e3d f989 9dbd 45b6 8cbd
00000120: 3d00 aabd 61a9 afbd 6720 a83c 792a 0e3d
00000130: ee01 853b a696 2f3d 9686 bc3c 5360 f0bb
00000140: db68 c53b 5efc 183d ee35 87bd f3ae 223c
-0.012247045 0.06959425 0.004718921 0.038403478 0.016806595 0.06288351 0.014652913 0.06102551
-0.08745785 -0.037523076 0.05259887 0.0374384 0.04092829 0.003297689 0.026521044 -0.08852845
-0.03716468 0.013536674 0.052292738 0.054119755 -0.008984431 0.036399573 -0.05411185 -0.008918356
-0.012292515 -0.037505057 -0.002497 0.10236072 0.10104484 0.028170573 0.011227008 -0.012399256
-0.029127706 0.042243138 -0.05435179 0.0039451895 -0.024184855 -0.023204645 -0.035667706 0.076463625
0.017402587 -0.026526371 0.034462772 -0.075206146 0.04871272 -0.021851026 -0.059087127 -0.011781383
0.020888917 -0.014734855 -0.027149456 0.045916196 -0.012833408 0.042858627 -0.065152176 -0.081633694
-0.037636388 0.07745745 0.048822675 0.0508651 -0.070852675 0.048181534 0.031547 -0.05047096
0.09283936 0.0017692109 0.0056162747 0.09202062 0.059091542 0.069815665 -0.07692332 -0.06870703
-0.08300827 -0.08577228 0.020523263 0.034708474 0.004059068 0.04286828 0.023013394 -0.0073357015
0.0060244626 0.03735005 -0.06602083 0.009929406

fc3.weight f4 [10, 84]
00000000: 949d 10bd 9777 cf3d 6ee4 90be cf59 d53d
00000010: 04b6 53bb d90d d9bd 64da 263e 0620 00be
00000020: e12c e03c 0156 03be 41c4 53bc 224a 413d
00000030: ff4f 6f3c 7cf7 8d3d d17a 09be 5861 453a
00000040: 6202 87bb 1de7 28be 506d 473d b109 8cbc
00000050: 621b c73b 858e f3bd f0f1 c4bd bd2e 4a3c
00000060: 5e3a f33c d9a4 8f3d b6bf 053d c331 ebbd
00000070: 1a08 0ebe c896 65be d4fc 473d 849a 1ebe
00000080: 6b52 b2bd 156e d83d ee21 5bbb 73b3 a6bd
00000090: f90b 9cbc 1645 8bbd e9a1 d6bd 5c56 55bd
000000a0: 5ea1 5bbd 2c2f 9fbd 5211 74bc d04b d2bd
000000b0: e6bd fabd f94f e1bd 6307 0a3e 1086 273e
000000c0: cf0a 913d f9d4 1e3d fbf8 633b ec6b 08bd
000000d0: 212b d3bd 3d59 ab3d 6d19 86bd f8b2 9d3d
000000e0: e518 23bd 30ad 3c3d 7815 ae3d aa31 3a3d
000000f0: befc 8b3d 4a04 85bd e878 2b3e 0547 0d3e
00000100: 2ba6 fa3a 9d57 463d ac6a 743d a056 e13d
00000110: 2906 e5bd b7dd 3abb ec99 e5bd b64e babd
00000120: 475b 2e3e d914 313e b70f d43d 4f83 143e
00000130: 4d94 de3d 6b79 993d 7211 493e 3959 2abc
00000140: de66 213e 9f80 833d bc6f 433d a0d3 123e
00000150: 1229 b33d fede 24bd 3d6b 033e 5de5 733b
00000160: 2a78 c8bd ba6e 88bd fb0f 9a3d 77db 9e3d
00000170: d109 0a3e 1623 0b3e 2f3e 0a3c 0150 07be
00000180: 15de 30be 4cc3 f2bc 40de 113e 3727 843d
00000190: 6377 463e 4a38 0d3c 3cea 9f3d 92f7 bf3d
000001a0: b581 d43d 77d4 f03d 898b bb3d 2627 1b3c
000001b0: 3ed5 b2bd c901 88bd 9e96 12be 4238 1e3d
000001c0: 572e 84bd a292 fdbd e0a9 0abe 6501 0abc
000001d0: 32a3 3bbe 3c90 97bd 52f1 9ebd 5e19 f3bd
000001e0: 16a0 7a3c a0cb 583d fbeb bf3d 2476 c93d
000001f0: dc0a 80bd 8252 9d3d 41cc 76bd cde9 16be
00000200: 3c8a d3bd 94fe 6c3e fef0 823c df7f 0b3d
00000210: c65a 3c3e ab90 a3bd 5140 80be 5951 353d
00000220: 3362 c23c bff0 b4bd 8818 51bd 4b95 be3d
00000230: 811d 8fbd f06b e43d 6dd4 a63c c786 5abd
00000240: e545 22bd 2062 17be 3d33 143d 190a cdbc
00000250: 8a98 e93d eff6 173e 3a74 7cbd 4c34 593d
00000260: 9c9c ff3c 3f86 10be 9264 8bbd c007 a5bd
00000270: 5c5d d6bd e3c4 91bd 9701 32bc d0f8 893d
00000280: a96d 89be 1e21 6c3d ec82 e7bd 810e f6bb
00000290: 363d 093d 63c0 913c 063c 6e3e 56cb a53d
000002a0: a8da 433e c4ac aa3d 3767 cb3d 6dac 463e
000002b0: 0f34 943d d58b 273d 82ab dd3c 9155 a9bd
000002c0: fc70 e8ba c3df 9b3d 85da 1fbc 2a3f 043d
000002d0: 72ce 6b3d 9362 dabd f082 f63d 5a85 853d
000002e0: b167 e03c c254 0b3c 9dd9 bc3d 0248 573d
000002f0: 28a5 8dbd 7947 7dbe 4450 cabd e05f d2bd
00000300: cc77 9a3d af29 de3d ee62 733e 03e1 cebd
00000310: 87ee f63d de9e e7bd bb28 e8bd 214a 44be
00000320: a5fb a6bd 1d3d aebd 12d0 7b3d 987f 13be
00000330: 1c99 84bd c1ff 4e3d 843c a93c 0fac 8dbc
00000340: 7f48 2e3e 1525 14be 9f2a 00bc b48d 5ebd
00000350: dbc9 3c3e 2a58 9d3d c40a b23d 77af 843c
00000360: 7f25 633e a587 a3bd 817a ef3d 5598 87bd
00000370: 0b4f bdbd 38a5 c43d cb46 18be 14e7 0b3e
00000380: 57d9 9bbd e7c0 8bbc d9d8 803d d9ef b9bc
00000390: a521 cfbd 6015 803d 563b 6bbe 1fd6 63bd
000003a0: 3819 073d 9067 5d3d 5c49 1d3d 992c 8dbd
000003b0: 29ca 26bb 08d9 b53c 73bc 14bd 4a77 233c
000003c0: 0a45 293d fbc6 de3d d6e9 3f3d 0c8d d63d
000003d0: 238f 1fbe a28d 9cbd 93eb 103e e4fe 0dbe
000003e0: 265d 63bd 7ed5 1bbe c955 823d 3722 4e3c
000003f0: 9dbe 7ebd 5094 c73d 754a 0a3e cfe9 153e
-0.03530653 0.10130232 -0.28299278 0.1041752 -0.0032304535 -0.10598344 0.16294247 -0.12512216
0.02736515 -0.12825777 -0.012925209 0.04718984 0.014606475 0.069319695 -0.13425757 0.0007529459
-0.004120157 -0.16494413 0.048688233 -0.017094465 0.0060762623 -0.11892418 -0.096164584 0.012340245
0.029690918 0.07013864 0.032653533 -0.11484101 -0.13870278 -0.224208 0.0488251 -0.1548863
-0.08707126 0.105678715 -0.0033436972 -0.08139696 -0.019048678 -0.068002865 -0.10480101 -0.05208431
-0.05362069 -0.07772669 -0.014896708 -0.10268366 -0.122432515 -0.11001582 0.1347938 0.16359735
0.0708214 0.038777325 0.0034785855 -0.033306047 -0.103109606 0.0836663 -0.06547818 0.07700151
-0.039818663 0.046063602 0.085001886 0.04545752 0.06835316 -0.06494959 0.16745341 0.13796623
0.0019123008 0.0484234 0.059672043 0.110028505 -0.111828156 -0.00285135 -0.11210999 -0.09097044
0.17027007 0.17293109 0.1035456 0.14503215 0.1086813 0.07493862 0.19635561 -0.010397249
0.15761897 0.06421017 0.04771398 0.14338541 0.08748068 -0.040251724 0.12833877 0.0037215569
-0.097885445 -0.066617444 0.07522579 0.07756703 0.13480307 0.13587603 0.008437677 -0.13214113
-0.17272218 -0.02963414 0.14244938 0.06452792 0.1938148 0.008619377 0.078083485 0.09373392
0.10376302 0.117592745 0.091574736 0.009469783 -0.08732079 -0.066409655 -0.14315268 0.03862787
-0.06454151 -0.123814836 -0.13541365 -0.008423184 -0.18323973 -0.074005574 -0.07760872 -0.11870073
0.0152969565 0.052928567 0.093711816 0.09836987 -0.06252071 0.07681753 -0.060253385 -0.14737625
-0.103291005 0.23143989 0.015984055 0.034057494 0.18394002 -0.079865776 -0.2504907 0.044267032
0.023728466 -0.08834981 -0.051048785 0.09305819 -0.06988049 0.111534 0.020364964 -0.05335119
-0.039617438 -0.14783525 0.036181677 -0.025029229 0.11406048 0.14840291 -0.06163428 0.05302839
0.031202607 -0.14113711 -0.06806292 -0.08058119 -0.10467026 -0.07117631 -0.010864637 0.0673691
-0.26841477 0.05764877 -0.11304268 -0.007509053 0.03350564 0.017791932 0.23265085 0.08095424
0.1912638 0.08333734 0.09931796 0.19401713 0.07236492 0.04090484 0.02705932 -0.082682736
-0.0017733867 0.076110385 -0.009756689 0.0322868 0.05756993 -0.10663333 0.12036693 0.065195754
0.027393194 0.008504095 0.09221194 0.052558906 -0.06916267 -0.24734296 -0.09878591 -0.10272193
0.07542381 0.10847794 0.23768207 -0.10101511 0.12057214 -0.113095984 -0.11335894 -0.19168903
-0.08153466 -0.0850775 0.06147773 -0.14404142 -0.06474516 0.050536875 0.020658739 -0.017293958
0.17019843 -0.1446727 -0.007822662 -0.054334357 0.18436377 0.076828316 0.0869346 0.01619695
0.22182272 -0.079848565 0.11693288 -0.06620852 -0.09243592 0.096018255 -0.14870755 0.13662368
-0.07609814 -0.017059756 0.062913604 -0.022697376 -0.10113839 0.06254077 -0.22971854 -0.055624124
0.032983035 0.054053843 0.03840004 -0.06893272 -0.0025450087 0.022198215 -0.03631253 0.009977171
0.041325606 0.10877796 0.046853863 0.10476121 -0.15581946 -0.07644202 0.14152364 -0.13866764
-0.055508755 -0.1521816 0.063640185 0.0125814 -0.0621935 0.09745085 0.13504966 0.14639972

fc3.bias f4 [10]
00000000: 35b0 e3bd 2261 71bd b092 f53c 24b8 943c
00000010: 2dfa 5bbd 06f6 37bd 5a9a 3e3d ffee 863b
00000020: 1d1f 8ebd 83ee c5bc
-0.11117593 -0.058930524 0.029977173 0.018154211 -0.053705383 -0.04491236 0.04653392 0.004117846
-0.06939528 -0.024161583
