Project3/checkpoints/LeNet5/epoch-3.pth (torch, 243143 bytes, 10 tensors)

conv1.weight f4 [6, 1, 3, 3]
0.36755586 0.31425592 0.22305939 0.10716062 0.17361975 -0.06307212 0.44141075 0.49981827
0.22931334 -0.023664478 0.29597992 -0.18129134 0.38972643 0.35303324 0.053719025 -0.13045093
-0.13179113 -0.04185831 0.69135743 0.7607306 0.67354405 0.7851837 0.82005364 0.5361148
0.535762 0.28768575 -0.020742198 0.18831995 0.31157616 0.04581241 -0.023817293 -0.2362152
0.042864792 -0.027856978 -0.2649724 -0.017496457 0.18590963 -0.19056046 0.26426247 0.3468393
0.15517318 -0.32797134 -0.016102301 0.049405485 0.29735792 0.036133222 -0.31383887 -0.24626054
0.3461793 -0.16503811 0.15295224 0.20239034 0.10127881 -0.10897442
00000000: 4830 bc3e 27e6 a03e ae69 643e 0777 db3d
00000010: 60c9 313e f52b 81bd 9700 e23e 2ee8 ff3e
00000020: 1ed1 6a3e 02dc c1bc ae8a 973e 70a4 39be
00000030: 398a c73e c6c0 b43e 7b08 5c3d ee94 05be
00000040: 41f4 06be 9f73 2bbd cdfc 303f 3ebf 423f
00000050: 626d 2c3f cd01 493f 09ef 513f d23e 093f
00000060: b327 093f 8c4b 933e 8beb a9bc f2d6 403e
00000070: e986 9f3e cba5 3b3d 7c1c c3bc 66e2 71be
00000080: fe92 2f3d 5134 e4bc 76aa 87be bb54 8fbc
00000090: 185f 3e3e 4822 43be 694d 873e ec94 b13e
000000a0: b8e5 1e3e dceb a7be f9e8 83bc 685d 4a3d
000000b0: 4c3f 983e 6e00 143d 7daf a0be b92b 7cbe
000000c0: 6a3e b13e c0ff 28be 839f 1c3e 6a3f 4f3e
000000d0: 446b cf3d fb2d dfbd

conv1.bias f4 [6]
-0.041792594 0.08446192 0.51035374 0.17032935 0.15016606 -0.002460548
00000000: b62e 2bbd 5ffa ac3d 8ba6 023f d16a 2e3e
00000010: 22c5 193e 2541 21bb

conv2.weight f4 [16, 6, 3, 3]
-0.13674052 0.19003281 -0.049774006 -0.070784174 0.1613616 0.019217217 0.13576862 0.089580394
0.053730827 0.06217466 0.11505937 0.1608864 0.063012786 0.12098167 0.01916291 -0.09794916
0.07298963 0.10780557 -0.21087442 0.2891969 0.08884753 0.08586865 0.27914238 -0.171094
0.26006755 0.12569048 -0.24651714 -0.12224144 0.05335014 0.14532776 -0.10152809 -0.10224548
-0.0819183 -0.055089206 -0.04421368 -0.072924055 0.08510517 0.008046268 0.12984803 -0.13798694
0.14798899 -0.05269704 -0.032485597 0.07979091 0.07770271 -0.032421425 0.026178643 0.118699856
-0.051511772 -0.100694835 0.064967334 -0.060560822 -0.027313253 0.06459008 -0.0015017159 0.08956502
-0.023213316 -0.08466731 0.028137991 0.18815805 -0.08984632 -0.036011893 -0.003890234 0.098982364
0.02721315 0.08600707 -0.032038167 -0.06570469 -0.11253059 -0.07511645 -0.11904327 0.10343219
-0.08907722 0.17003228 0.011310068 0.05685108 0.17930713 -0.01783958 -0.2172566 0.04105076
0.069285855 0.025909903 0.074435286 0.015890885 0.0038424716 -0.057350565 0.12711866 -0.014143434
-0.032178268 -0.0668139 -0.0923128 0.0040002028 0.07244596 0.087341025 -0.08056324 0.076964006
0.048296835 -0.036669742 0.08984711 0.01468095 -0.10345419 0.072816245 -0.004541532 -0.121086724
0.07494552 0.016420295 -0.045244142 -0.10874503 -0.028348098 0.18615493 0.086271405 -0.02254087
0.0021271275 -0.10145844 -0.19006841 0.023920093 -0.0691076 -0.028731048 0.086124405 -0.050147645
0.11372207 -0.061074357 0.13642766 0.05494922 -0.08735296 -0.03480211 0.20395452 0.2991643
0.24002166 -0.090796195 -0.1020982 0.11761829 -0.118146785 -0.29414222 -0.20692672 0.065212496
0.08079089 -0.025964815 -0.0071084634 0.018901652 -0.09013083 -0.0018542702 0.13004404 -0.065263726
0.083491914 0.14478149 0.018410016 0.04080741 -0.059791937 -0.069391295 -0.07673893 0.06528883
0.08372314 -0.09654675 -0.063774794 -0.037972424 0.10937336 -0.01856611 -0.11440548 0.035976708
-0.017457817 -0.0986924 -0.007945193 0.14402756 0.08078777 0.08198491 -0.13069847 0.04366085
-0.08302493 0.0758825 -0.019373951 0.09803689 0.010851488 -0.08922955 -0.022190778 -0.13624875
-0.05157731 -0.0061065825 0.03883859 -0.03740074 0.16929299 0.07133354 0.047941927 0.059587523
-0.026210716 -0.109914295 -0.1426404 -0.047910605 -0.15007252 -0.08602981 -0.039959226 -0.05908802
0.058760837 -0.11202569 -0.076299086 -0.1032898 0.039097775 0.13276789 0.10117561 0.04143104
0.018551385 0.0185217 -0.09461628 -0.082870044 0.0975918 0.0486669 -0.0627798 -0.10945688
-0.007837165 -0.12759167 -0.06593979 -0.053133156 0.010289464 0.058292203 0.03092509 -0.10440668
-0.11338765 0.0044088806 0.10492801 -0.0726631 0.050538104 -0.11051621 -0.010610653 -0.030034045
-0.08200011 0.061567817 0.14712949 -0.03219903 0.018740563 -0.12522165 -0.1139636 -0.089443944
-0.043738004 0.030415917 0.26425198 0.3080853 0.17486946 -0.18313237 -0.22068964 0.029129684
-0.09082498 -0.018737426 -0.035065494 -0.021102412 0.10807549 -0.031972393 0.05700477 0.13053684
0.05609458 0.046118096 -0.04199508 -0.047897752 0.008275435 0.09283605 0.028693868 -0.12023395
00000000: b505 0cbe f697 423e d4df 4bbd 4bf7 90bd
00000010: fa3b 253e 6d6d 9d3c ee06 0b3e ed75 b73d
00000020: db14 5c3d dbaa 7e3d 3fa4 eb3d 68bf 243e
00000030: d90c 813d 3dc5 f73d 89fb 9c3c 9299 c8bd
00000040: 967b 953d 2bc9 dc3d 77ef 57be 9e11 943e
00000050: b2f5 b53d e7db af3d c0eb 8e3e 4433 2fbe
00000060: 9327 853e 01b5 003e fd6e 7cbe b859 fabd
00000070: ad85 5a3d cdd0 143e f6ed cfbd 1466 d1bd
00000080: c8c4 a7bd 38a5 61bd 6719 35bd 3559 95bd
00000090: 9f4b ae3d 7ed4 033c e2f6 043e 734c 0dbe
000000a0: 6d8a 173e dad8 57bd 9e0f 05bd 6b69 a33d
000000b0: 9922 9f3d 54cc 04bd 9874 d63c e918 f33d
000000c0: 02fe 52bd 1839 cebd 980d 853d a00e 78bd
000000d0: 0bc0 dfbc ce47 843d 39d5 c4ba dd6d b73d
000000e0: da29 bebc 0e66 adbd a581 e63c 81ac 403e
000000f0: 5901 b8bd 3581 13bd 4cf3 7ebb 44b7 ca3d
00000100: 1dee de3c 7a24 b03d 743a 03bd 2e90 86bd
00000110: 7076 e6bd a7d6 99bd f5cc f3bd 42d4 d33d
00000120: 1e6e b6bd f11c 2e3e dd4d 393c aedc 683d
00000130: 4a9c 373e 5024 92bc 8478 5ebe d724 283d
00000140: bee5 8d3d 0141 d43c 8771 983d 9a2d 823c
00000150: fad1 7b3b 6de8 6abd 652b 023e ddb9 67bc
00000160: 5ccd 03bd bad5 88bd 7e0e bdbd 2214 833b
00000170: 8c5e 943d dadf b23d 57fe a4bd 4e9f 9d3d
00000180: e7d2 453d 0333 16bd c301 b83d 5e88 703c
00000190: cadf d3bd af20 953d 22d1 94bb 51fc f7bd
000001a0: 097d 993d db83 863c ec51 39bd b7b5 debd
000001b0: 453a e8bc 669f 3e3e 10af b03d a1a7 b8bc
000001c0: 4767 0b3b 71c9 cfbd 4ba1 42be 12f4 c33c
000001d0: 4988 8dbd 605d ebbc fe61 b03d 9e67 4dbd
000001e0: 1ee7 e83d 1b29 7abd b1b3 0b3e 6f12 613d
000001f0: 1ce6 b2bd a88c 0ebd 74d9 503e 102c 993e
00000200: 3dc8 753e 5bf3 b9bd dc18 d1bd dce1 f03d
00000210: f1f6 f1bd cf99 96be 99e4 53be 218e 853d
00000220: b275 a53d 2ab4 d4bc 1dee e8bb a3d7 9a3c
00000230: 8396 b8bd fc0a f3ba 442a 053e fda8 85bd
00000240: cffd aa3d 9941 143e 9ad0 963c ac25 273d
00000250: 64e8 74bd 061d 8ebd 4d29 9dbd 26b6 853d
00000260: 0a77 ab3d 4dba c5bd 5c9c 82bd f988 1bbd
00000270: 24ff df3d f417 98bc 6c4d eabd 505c 133d
00000280: b203 8fbc 3e1f cabd 8e2c 02bc f67b 133e
00000290: 0f74 a53d b4e7 a73d d2d5 05be b8d5 323d
000002a0: f908 aabd 4968 9b3d 1fb6 9ebc 91c7 c83d
000002b0: 71ca 313c fbbd b6bd 6fc9 b5bc cb84 0bbe
000002c0: bb42 53bd ba19 c8bb 3715 1f3d 8531 19bd
000002d0: 245b 2d3e 5217 923d c15e 443d 0c12 743d
000002e0: dbb7 d6bc bf1a e1bd 5310 12be e93d 44bd
000002f0: 9cac 19be 6630 b0bd 49ac 23bd 4806 72bd
00000300: 34af 703d ba6d e5bd b242 9cbd 9a89 d3bd
00000310: fd24 203d 4ef4 073e 2935 cf3d 98b3 293d
00000320: 13f9 973c d2ba 973c 2ec6 c1bd c5b7 a9bd
00000330: 36de c73d f156 473d b292 80bd ee2a e0bd
00000340: 7467 00bc 64a7 02be 710b 87bd 27a2 59bd
00000350: 2495 283c cec3 6e3d 9d56 fd3c 2bd3 d5bd
00000360: c937 e8bd 5f78 903b 7fe4 d63d 64d0 94bd
00000370: 0b01 4f3d 5356 e2bd 4ed8 2dbc f509 f6bc
00000380: acef a7bd 892e 7c3d 1da9 163e 21e3 03bd
00000390: cf85 993c 1b3a 00be bf65 e9bd 632e b7bd
000003a0: 9f26 33bd cd2a f93c 094c 873e 5bbd 9d3e
000003b0: fb10 333e 0d87 3bbe 77fc 61be 60a1 ee3c
000003c0: 7202 babd 3b7f 99bc d6a0 0fbd f7de acbc
000003d0: af56 dd3d 7cf5 02bd d57d 693d 73ab 053e
000003e0: 6ec3 653d 54e6 3c3d 0803 2cbd 6f30 44bd
000003f0: b195 073c d420 be3d 670f eb3c 383d f6bd

conv2.bias f4 [16]
-0.0013014965 0.09477534 -0.089818455 -0.09126159 -0.09190734 -0.056620166 0.10563736 -0.044440817
0.08080683 0.080358274 0.060363043 0.027514772 0.123246744 -0.038685348 0.06665684 -0.020870343
00000000: fa96 aaba 9319 c23d bdf2 b7bd 5be7 babd
00000010: ea39 bcbd 8cea 67bd 6658 d83d 9307 36bd
00000020: 0d7e a53d e192 a43d 3d3f 773d a966 e13c
00000030: ca68 fc3d 8774 1ebd 6283 883d 48f8 aabc

fc1.weight f4 [120, 400]
0.011399889 0.014326311 -0.013237759 0.04336552 -0.033582374 -0.02348391 0.0019486126 -0.015969219
0.026763052 -0.03663571 -0.014326111 -0.026804205 -0.019577807 0.00966488 -0.024350332 0.008329365
0.08834226 0.08641928 0.01965316 0.034860592 0.021438325 0.009794996 0.04233832 -0.04051748
-0.059169613 0.001231168 0.050613634 0.016859848 0.046819706 -0.021024091 0.02296717 0.007789977
-0.011280567 0.033918325 0.024131335 0.030807987 -0.020930989 -0.01856921 0.015948419 -0.0386445
0.030068725 0.020364273 -0.03136672 0.008065684 -0.031648595 0.002340126 0.019274743 -0.028943818
-0.026572373 0.023092583 0.018391563 0.04062634 0.005035782 -0.032550804 -0.00531128 -0.032842785
-0.048547376 0.044805523 0.04239717 0.046311617 -0.026562324 0.012080861 0.02701961 0.0031548874
0.051951956 0.030729713 -0.07417037 0.014942864 -0.021342095 0.021310579 -0.047858946 0.02226786
-0.004869833 0.0074135386 0.044604134 0.01682603 -0.035590675 0.027707 -0.008812401 0.019990016
-0.026760127 -0.025273493 0.0071644774 0.043412276 -0.043110427 0.005867303 -0.00011337621 0.042698037
0.017108822 0.028759487 -0.03505238 0.03738893 0.025207404 -0.02070648 0.03776779 -0.02011506
-0.013738802 0.004387104 -0.010628015 0.024072144 -0.04586947 -0.0043910127 0.0107720345 0.048971936
0.041054443 0.010433518 -0.048016947 -0.034550626 0.030041387 -0.026173122 -0.048043106 0.0019597798
-0.017812952 0.04003385 0.014812088 0.04312599 0.005562741 0.00571317 -0.020015627 0.00897856
0.03542146 -0.06626054 0.0149195045 0.012074024 0.03716579 0.040807225 0.050785758 -0.016680162
0.009219183 -0.04364739 -0.04956064 0.005613331 0.051506616 0.049621914 -0.0051063313 -0.0075747785
0.013002458 0.010523523 -0.053797428 -0.027550085 0.014573108 0.0063949944 0.01704988 0.0317643
0.04643742 0.038372256 0.0046187146 -0.029580675 -0.029180381 0.021622445 0.00047160088 0.02738127
-0.044458285 -0.009772457 -0.0071274517 -0.013619149 -0.015113792 -0.025651861 0.019807143 -0.034028452
-0.025948849 0.018283864 -0.014003339 -0.047800746 0.027289797 -0.044053927 0.042617068 -0.014559392
-0.021069488 0.039379936 0.013669265 0.023113906 -0.0024630562 -0.031042125 0.035457887 0.031259697
-0.0044086194 0.0102783255 -0.00473284 -0.049980912 -0.023256136 0.018386694 0.041638594 0.031764258
0.0011361954 0.008769838 -0.013887849 -0.06483649 -0.011712716 0.0058467314 -0.025021331 -0.05477502
0.016954506 -0.010401663 0.022422202 -0.024924856 -0.011246237 0.076081865 0.020379296 -0.0078046247
-0.019162375 0.033497076 0.0014904719 0.042523816 0.012328407 0.0010991176 0.019098334 0.05419526
-0.05085726 0.030689282 -0.032445442 0.010850705 -0.027457805 -0.030355727 0.053417865 0.021407513
-0.023207067 0.0073014856 -0.005895277 -0.04391571 0.055210035 0.042837467 -0.0047804206 -0.01592504
0.006724904 -0.00888585 0.039489683 0.027023911 0.03239886 -0.04749106 0.04266501 0.017245058
0.026500514 -0.0235078 -0.0039045976 -0.030367533 0.018112067 -0.03617829 -0.029669737 -0.04876311
0.042444363 0.028798383 -0.03761495 -0.04290696 0.007682442 0.015374477 -0.043034106 -0.043007374
0.039907873 -0.0019691254 0.02129997 0.01764469 -0.017540619 0.04268513 -0.019343026 0.023963237
00000000: 9ac6 3a3c e7b8 6a3c 2fe3 58bc 0ba0 313d
00000010: ac8d 09bd 5461 c0bc 9768 ff3a e1d1 82bc
00000020: 303e db3c 540f 16bd 11b8 6abc 7e94 dbbc
00000030: a361 a0bc 7259 1e3c 597a c7bc e477 083c
00000040: c9ec b43d 97fc b03d aaff a03c fbc9 0e3d
00000050: 6d9f af3c 317b 203c f26a 2d3d a8f5 25bd
00000060: d65b 72bd 255f a13a 3e50 4f3d aa1d 8a3c
00000070: 05c6 3f3d b73a acbc a625 bc3c 1043 ff3b
00000080: 21d2 38bc f1ed 0a3d 14af c53c 0861 fc3c
00000090: 7777 abbc 751e 98bc 42a6 823c b249 1ebd
000000a0: b052 f63c fad2 a63c 647a 00bd ee25 043c
000000b0: f5a1 01bd cd5c 193b 11e6 9d3c 961b edbc
000000c0: 4eae d9bc a82c bd3c e7a9 963c ce67 263d
000000d0: 3303 a53b fe53 05bd 3f0a aebb 2886 06bd
000000e0: 9dd9 46bd ff85 373d a8a8 2d3d 40b1 3d3d
000000f0: 3b99 d9bc ceee 453c 3b58 dd3c 3ac2 4e3b
00000100: 93cb 543d e1bc fb3c a3e6 97bd ead2 743c
00000110: 9ed5 aebc 8693 ae3c be07 44bd 166b b63c
00000120: 1f93 9fbb 45ed f23b d3b2 363d bed6 893c
00000130: 87c7 11bd caf9 e23c e461 10bc 1ac2 a33c
00000140: 0e38 dbbc 5b0a cfbc fec3 ea3b 12d1 313d
00000150: 8f94 30bd 8142 c03b 64c4 edb8 23e4 2e3d
00000160: cd27 8c3c 0499 eb3c 1693 0fbd 2225 193d
00000170: c27f ce3c a3a0 a9bc 66b2 1a3d 57c8 a4bc
00000180: b618 61bc b2c1 8f3b 2021 2ebc f232 c53c
00000190: a0e1 3bbd 7ce2 8fbb 307d 303c cc96 483d
000001a0: b428 283d 59f1 2a3c 6bad 44bd f584 0dbd
000001b0: 5b19 f63c 0469 d6bc d9c8 44bd a66f 003b
000001c0: 78ec 91bc 89fa 233d 66ae 723c e1a4 303d
000001d0: a747 b63b 8b35 bb3b d0f7 a3bc cf1a 133c
000001e0: 1816 113d 9bb3 87bd f070 743c 21d2 453c
000001f0: 283b 183d 7a25 273d ba04 503d d6a4 88bc
00000200: 0e0c 173c 9bc7 32bd 1900 4bbd 09f0 b73b
00000210: 9af8 523d 5940 4b3d 0353 a7bb d935 f8bb
00000220: 4308 553c db6a 2c3c b15a 5cbd b7b0 e1bc
00000230: 0cc4 6e3c 1a8d d13b 31ac 8b3c 481b 023d
00000240: 2a35 3e3d 3a2c 1d3d 9658 973b 2c53 f2bc
00000250: b20b efbc 8e21 b13c 3341 f739 af4e e03c
00000260: e419 36bd a81c 20bc 668d e9bb da22 5fbc
00000270: d79f 77bc da23 d2bc 9742 a23c 6b61 0bbd
00000280: ae92 d4bc 0bc8 953c 436e 65bc b7ca 43bd
00000290: da8e df3c e471 34bd 3c8f 2e3d 848a 6ebc
000002a0: eb99 acbc db4c 213d 0ef5 5f3c 6059 bd3c
000002b0: 3a6b 21bb 0e4c febc 4a3c 113d 2b0a 003d
000002c0: 2e76 90bb 6c66 283c f115 9bbb c9b8 4cbd
000002d0: a783 bebc b19f 963c 3b8d 2a3d 3d1b 023d
000002e0: 64ec 943a 5eaf 0f3c dc89 63bc fec8 84bd
000002f0: b1e6 3fbc f095 bf3b 89f9 ccbc c55b 60bd
00000300: 2de4 8a3c bd6b 2abc c4ae b73c 362f ccbc
00000310: 2342 38bc cfd0 9b3d 7bf2 a63c f0bd ffbb
00000320: 6afa 9cbc 3b34 093d f05b c33a 742d 2e3d
00000330: 16fd 493c 4410 903a 1c74 9c3c d9fb 5d3d
00000340: b44f 50bd 1768 fb3c 83e5 04bd 28c7 313c
00000350: 31ef e0bc 93ac f8bc b1cc 5a3d cf5e af3c
00000360: bf1c bebc 4d41 ef3b 2b2d c1bb f6e0 33bd
00000370: eb23 623d 5776 2f3d 13a5 9cbb 3b75 82bc
00000380: 955c dc3b f595 11bc efbf 213d 4061 dd3c
00000390: abb4 043d fc85 42bd 81c1 2e3d 8245 8d3c
000003a0: 9b17 d93c 6e93 c0bc 47e4 7fbb 55c5 f8bc
000003b0: c25f 943c b02f 14bd f30d f3bc d4bb 47bd
000003c0: 24da 2d3d 96ea eb3c 2212 1abd 35bf 2fbd
000003d0: ffbc fb3b 3be5 7b3c 8844 30bd 8028 30bd
000003e0: 7076 233d 710c 01bb 467d ae3c 998b 903c
000003f0: 58b1 8fbc 9ad6 2e3d 4475 9ebc 8d4e c43c

fc1.bias f4 [120]
0.047977816 0.0016630975 -0.030794136 0.045349427 0.00406448 0.047465358 0.026240204 0.017015012
0.027354185 -0.037939645 -0.021818591 0.027741956 -0.01610634 -0.0025761393 0.028786635 0.028400222
-0.04035436 0.054114725 -0.0077093826 -0.030925037 0.034690317 -0.008195993 -0.04095373 0.010126449
0.008910825 -0.031039733 -0.027076742 -0.030784441 0.029393902 0.0090545565 -0.021169782 0.041458424
0.03938989 -0.041773252 0.032312438 0.05035513 0.051756524 0.025323879 0.024871737 0.02582068
0.018580638 0.0076396773 0.034302603 -0.016569098 -0.007688277 0.014200763 0.028574891 0.022247178
-0.04077395 -0.039247196 -0.003752508 0.053291153 -0.047394786 0.008720294 0.0133312885 0.023896063
0.038933955 -0.031152101 0.035895575 -0.026486719 0.015183474 -0.042301293 0.006874412 -0.035422422
-0.02137748 0.02775499 0.04756564 0.026833033 -0.025518388 0.0032256527 0.029063031 0.038202427
-0.0018020759 0.021833703 -0.0274955 0.0113731595 -0.035678744 -0.019897638 0.048245937 -0.007751879
-0.018467747 -0.016627531 -0.04122845 -0.040406726 -0.008840402 0.041574232 0.04570183 -0.04113227
0.00947917 0.027261388 -0.034087062 -0.043159805 -0.00435552 0.043132823 0.0007470164 0.04229049
-0.03462202 0.0041025435 0.023043552 -0.00876831 0.04459219 -0.011570402 0.025964318 -0.00069068396
-0.013607015 0.022843841 0.033314332 0.0011151803 -0.014370638 -0.02463552 0.015841562 -0.029052377
0.046415634 0.029074814 -0.007989871 -0.007803515 0.017369896 -0.019672565 -0.003665774 -0.02141685
00000000: 6384 443d 4bfc d93a fc43 fcbc 52c0 393d
00000010: 542f 853b 096b 423d b2f5 d63c 1163 8b3c
00000020: e215 e03c 9a66 1bbd e7bc b2bc 1943 e33c
00000030: 71f1 83bc 72d4 28bb f3d1 eb3c 95a7 e83c
00000040: 9d4a 25bd 67a7 5d3d fd9e fcbb 8156 fdbc
00000050: 6f17 0e3d 7c48 06bc 19bf 27bd 68e9 253c
00000060: b5fe 113c 0a47 febc 0bd0 ddbc a72f fcbc
00000070: 7bcb f03c 9059 143c 406c adbc 4fd0 293d
00000080: 4b57 213d 6e1a 2bbd 0c5a 043d 2e41 4e3d
00000090: a6fe 533d 0674 cf3c d0bf cb3c e485 d33c
000000a0: 6c36 983c 4256 fa3b e380 0c3d ebbb 87bc
000000b0: f1ed fbbb 51aa 683c e415 ea3c b73f b63c
000000c0: 9602 27bd abc1 20bd a3ec 75bb d347 5a3d
000000d0: 0921 42bd 90df 0e3c 7a6b 5a3c adc1 c33c
000000e0: 3679 1f3d b132 ffbc 3d07 133d adfa d8bc
000000f0: 1bc4 783c 1f44 2dbd bf42 e13b 1a17 11bd
00000100: d31f afbc 6f5e e33c 30d4 423d f3d0 db3c
00000110: f00b d1bc 7965 533b 9815 ee3c 267a 1c3d
00000120: a233 ecba 98dc b23c 3e3e e1bc 7d56 3a3c
00000130: e023 12bd 5f00 a3bc 889d 453d 7903 febb
00000140: ac49 97bc 7636 88bc 2adf 28bd 8681 25bd
00000150: 55d7 10bc be49 2a3d d831 3b3d 507a 28bd
00000160: 854e 1b3c 4653 df3c e09e 0bbd 56c8 30bd
00000170: c0b8 8ebb 0bac 303d 6cd3 433a cb38 2d3d
00000180: d2cf 0dbd a16e 863b d5c5 bc3c f5a8 0fbc
00000190: 4da6 363d c991 3dbc 1fb3 d43c 040f 35ba
000001a0: f5ef 5ebc 0223 bb3c 9c74 083d 3e2b 923a
000001b0: d372 6bbc 6ed0 c9bc 2ac6 813c 40ff edbc
000001c0: 521e 3e3d 4e2e ee3c f3e7 02bc a1b4 ffbb
000001d0: 504b 8e3c 5c28 a1bc 7b3d 70bb 6472 afbc

fc2.weight f4 [84, 120]
0.01293933 0.051068857 0.1201451 -0.010012175 0.07930001 -0.07615234 0.018005213 -0.09113043
0.021065967 -0.0981916 -0.066983305 0.08066341 0.037268747 0.07530066 0.05457993 0.10751966
0.048116457 -0.052085835 -0.08195486 0.022789655 -0.02686577 -0.010292712 0.01052671 -0.019645862
0.03787605 -0.062414035 0.0024737362 0.046851583 0.045488663 0.07368724 -0.013463715 -0.113013424
0.08864487 0.09527424 0.01454809 -0.076338105 0.02787724 0.023842439 0.07038899 -0.046515737
-0.07237482 0.0343115 -0.06599109 0.04295842 0.027866049 0.071878195 -0.046068482 -0.07648372
-0.024353633 -0.03683777 -0.01633597 0.03449767 -0.07368145 0.042488694 0.10029327 -0.08781773
-0.0145294145 0.015492619 0.023470277 0.025357671 -0.027658334 0.09192775 0.06575796 -0.06597786
0.12784497 0.06943259 -0.08213258 -0.035219688 -0.0019679104 0.06793165 -0.034330975 0.08814969
0.11466885 -0.0016957383 -0.107935034 0.0009403193 -0.0901144 -0.06272831 0.018149152 -0.06061515
-0.00022795891 -0.03317349 -0.09383116 0.028879752 -0.0154290395 -0.04054503 0.031947333 -0.022665814
-0.013225885 0.06926476 0.09346634 -0.031651 0.08114411 0.074893326 0.06917444 0.028996876
0.08158686 -0.037458707 -0.03755021 0.035926275 0.06675341 0.07949164 -0.03472697 0.1020951
-0.035837445 -0.03383456 -0.059552655 -0.07409466 -0.06506671 -0.032755215 -0.05838173 -0.046193693
-0.058585312 0.090051524 0.02683127 -0.018595427 -0.030586697 0.035730433 0.047594808 -0.0009550803
0.034593005 -0.032888938 -0.049845375 0.06901238 -0.054603558 -0.02047372 -0.08918395 0.030943185
0.013586416 0.0024390789 -0.028242266 -0.004635841 0.0650186 -0.006142418 0.002480053 -0.009337751
-0.00030174456 -0.033864975 0.044416245 -0.008145048 0.06964542 -0.06302008 -0.015492506 -0.07438144
0.03236284 -0.08611155 0.061545618 -0.05678604 0.07530335 -0.010184061 -0.08910007 -0.090442136
-0.023551803 0.093109086 0.009991654 0.025653461 -0.045263004 -0.008774764 0.059581164 0.05421208
-0.013905536 -0.060915824 0.005104099 -0.04192032 0.021680214 -0.029277392 0.049207393 0.044974513
-0.03033678 0.03826777 0.06373456 0.08683302 0.070553094 0.09810658 0.014578465 -0.0155135915
-0.079523735 -0.06518385 0.059622183 -0.03255615 -0.06908514 -0.07438224 0.034295317 0.058291227
-0.025396876 -0.0011207762 0.088565715 -0.002671235 -0.050889954 -0.033758305 0.07240712 -0.022617137
-0.041508973 0.016167255 0.09561928 -0.068245605 -0.041874684 0.03128221 0.0023319772 -0.08700857
-0.044425942 0.010300136 0.0013980265 0.07578158 -0.03797257 0.01225718 -0.08380079 0.024599856
0.09396326 0.07173494 -0.07152904 0.048249323 -0.034984637 -0.051943455 -0.08211852 -0.06463202
0.085560285 -0.08694204 -0.0078813145 -0.04161211 -0.07806233 -0.054300852 -0.07123632 -0.07410843
-0.015857311 0.029160146 -0.010202285 0.023850445 0.04410106 -0.00018208298 0.027680632 -0.005057098
-0.026996009 0.058804624 0.0024688242 -0.061779853 -0.06136832 -0.054314896 0.08828334 -0.03112603
-0.050692335 -0.0025267412 0.06965674 0.08049803 0.00642466 0.100318864 0.03633976 0.1408581
0.08124832 0.053044107 -0.0411939 0.12639971 0.06313365 0.05924903 0.029180678 -0.015372609
00000000: 7cff 533c 942d 513d a20e f63d 1b0a 24bc
00000010: 0b68 a23d c2f5 9bbd ab7f 933c 97a2 babd
00000020: 8992 ac3c ad18 c9bd 8b2e 89bd dc32 a53d
00000030: 1da7 183d 3c37 9a3d 348f 5f3d 4433 dc3d
00000040: c315 453d f557 55bd f3d7 a7bd 5fb1 ba3c
00000050: 9a15 dcbc c3a2 28bc 3978 2c3c 5cf0 a0bc
00000060: eb23 1b3d dca5 7fbd 681e 223b 72e7 3f3d
00000070: 5252 3a3d 56e9 963d ea96 5cbc 9573 e7bd
00000080: 718b b53d 241f c33d 1d5b 6e3c 2757 9cbd
00000090: cf5e e43c 3851 c33c 1a28 903d 4987 3ebd
000000a0: 4039 94bd 378a 0c3d 5626 87bd 2bf5 2f3d
000000b0: 5747 e43c e034 933d 4eb2 3cbd 7fa3 9cbd
000000c0: 4581 c7bc 34e3 16bd 03d3 85bc 6e4d 0d3d
000000d0: 4de6 96bd a008 2e3d 8f66 cd3d c8d9 b3bd
000000e0: c80c 6ebc c1d4 7d3c bd44 c03c e4ba cf3c
000000f0: bb93 e2bc 9e44 bc3d 1cac 863d 661f 87bd
00000100: cbe9 023e ac32 8e3d 2035 a8bd 8542 10bd
00000110: 0ff8 00bb c01f 8b3d a39e 0cbd d387 b43d
00000120: 81d7 ea3d 8943 deba 0b0d ddbd c37f 763a
00000130: e68d b8bd b377 80bd 88ad 943c 9747 78bd
00000140: 4108 6fb9 ede0 07bd 8d2a c0bd 3b95 ec3c
00000150: 15ca 7cbc 8c12 26bd 35db 023d a8ad b9bc
00000160: 62b1 58bc afda 8d3d 486b bf3d 7ba4 01bd
00000170: e22e a63d ac61 993d 54ab 8d3d db8a ed3c
00000180: 0317 a73d 4d6e 19bd 40ce 19bd 6e27 133d
00000190: 03b6 883d 83cc a23d de3d 0ebd 3c17 d13d
000001a0: 49ca 12bd 1c96 0abd 7ced 73bd f1be 97bd
000001b0: b241 85bd 552a 06bd ae21 6fbd 9935 3dbd
000001c0: 27f7 6fbd ef6c b83d 40cd db3c 7055 98bc
000001d0: f490 fabc 135a 123d c6f2 423d 5b5e 7aba
000001e0: 65b1 0d3d 8db6 06bd aa2a 4cbd 5d56 8d3d
000001f0: fba7 5fbd 81b8 a7bc 13a6 b6bd 907c fd3c
00000200: 8f99 5e3c f4d8 1f3b 535c e7bc 41e8 97bb
00000210: 7928 853d 5646 c9bb 6388 223b 5efd 18bc
00000220: 7833 9eb9 00b6 0abd cfed 353d cf72 05bc
00000230: 42a2 8e3d ac10 81bd 48d4 7dbc 4c55 98bd
00000240: e68e 043d 415b b0bd 4217 7c3d 7b98 68bd
00000250: a538 9a3d 0cdb 26bc 197a b6bd ba39 b9bd
00000260: b6ef c0bc faaf be3d 09b4 233c 3527 d23c
00000270: b365 39bd 07c4 0fbc 610b 743d 7c0d 5e3d
00000280: 0cd4 63bc df82 79bd 4940 a73b a4b4 2bbd
00000290: b49a b13c 24d7 efbc b18d 493d 3237 383d
000002a0: d784 f8bc aabe 1c3d 4487 823d 83d5 b13d
000002b0: 247e 903d 1aec c83d 84da 6e3c b82c 7ebc
000002c0: 57dd a2bd 1c7f 85bd 6436 743d 9959 05bd
000002d0: 837c 8dbd b755 98bd 3f79 0c3d c8c2 6e3d
000002e0: 1c0d d0bc 02e7 92ba f161 b53d e30f 2fbb
000002f0: fc71 50bd 2646 0abd 2f4a 943d 9347 b9bc
00000300: 5005 2abd 3171 843c 0bd4 c33d 5ac4 8bbd
00000310: ca84 2bbd c621 003d 16d4 183b 8d31 b2bd
00000320: faf7 35bd e7c1 283c fc3d b73a 5f33 9b3d
00000330: 2089 1bbd 57d2 483c c09f abbd a385 c93c
00000340: cf6f c03d c5e9 923d d17d 92bd 15a1 453d
00000350: 0d4c 0fbd a9c2 54bd c12d a8bd cb5d 84bd
00000360: 3b3a af3d ab0e b2bd a120 01bc 7671 2abd
00000370: 25df 9fbd 926a 5ebd 59e4 91bd 29c6 97bd
00000380: 31e7 81bc 42e1 ee3c 7c27 27bc 0262 c33c
00000390: 50a3 343d 87ed 3eb9 7ec2 e23c 03b6 a5bb
000003a0: bc26 ddbc 1edd 703d ffcb 213b df0c 7dbd
000003b0: 595d 7bbd 4c79 5ebd e5cd b43d 04fc febc
000003c0: c4a2 4fbd af97 25bb 31a8 8e3d 27dc a43d
000003d0: f485 d23b fa73 cd3d 00d9 143d 1b3d 103e
000003e0: 8565 a63d c744 593d efba 28bd ed6e 013e
000003f0: 374c 813d 1caf 723d 510c ef3c 65dd 7bbc

fc2.bias f4 [84]
-0.0118658105 0.06966645 0.004537064 0.038507648 0.016343243 0.06269666 0.01478128 0.06173309
-0.08748174 -0.037601 0.052615482 0.037106175 0.040189993 0.0032790427 0.026575828 -0.0885127
-0.037128255 0.013517328 0.052683726 0.0541202 -0.009114107 0.036246523 -0.054499317 -0.008918356
-0.012270434 -0.03760256 -0.0029292877 0.102223076 0.10099042 0.027356181 0.010511808 -0.012138806
-0.02954193 0.042347517 -0.05502892 0.0038741194 -0.024365822 -0.023154661 -0.035689607 0.076410316
0.017540121 -0.026532382 0.03434705 -0.07524814 0.0486863 -0.021408416 -0.058589175 -0.011567162
0.021647561 -0.01470663 -0.027942292 0.045730263 -0.012772351 0.042033322 -0.06536196 -0.08158264
-0.037807684 0.077624574 0.04895075 0.05090399 -0.070683986 0.04814445 0.030957697 -0.050455235
0.09303669 0.0014826293 0.005750133 0.09202206 0.058621485 0.069597535 -0.07706703 -0.06855319
-0.08326501 -0.086180694 0.020559622 0.03490285 0.003668668 0.042654183 0.02236527 -0.007627197
0.0065481053 0.03711879 -0.06529131 0.010199397
00000000: d168 42bc 49ad 8e3d a7ab 943b 32ba 1d3d
00000010: 44e2 853c 1b67 803d 2f2d 723c d6db 7c3d
00000020: a029 b3bd 8203 1abd 5583 573d a5fc 173d
00000030: 439e 243d 35e5 563b 8db5 d93c 2546 b5bd
00000040: cc13 18bd c877 5d3c e4ca 573d 25ad 5d3d
00000050: 5653 15bc 3c77 143d ad3a 5fbd 4c1e 12bc
00000060: ee09 49bc 2405 1abd 4bf9 3fbb 555a d13d
00000070: 11d4 ce3d 121a e03c b839 2c3c d8e1 46bc
00000080: eb01 f2bc 9774 2d3d 0166 61bd f0e4 7d3b
00000090: d59a c7bc d8ae bdbc 442f 12bd 037d 9c3d
000000a0: 4db0 8f3c 705a d9bc 7eaf 0c3d b21b 9abd
000000b0: 496b 473d b460 afbc 34fb 6fbd 3284 3dbc
000000c0: 3a56 b13c 14f4 70bc 3ce7 e4bc a84f 3b3d
000000d0: 1f43 51bc 222b 2c3d 7edc 85bd cd14 a7bd
000000e0: 3bdc 1abd a2f9 9e3d 9580 483d b480 503d
000000f0: c4c2 90bd 1d33 453d ff9a fd3c 26aa 4ebd
00000100: 058a be3d c954 c23a 9d6b bc3b 1076 bc3d
00000110: 151d 703d 2789 8e3d 52d5 9dbd 9d65 8cbd
00000120: d886 aabd 817f b0bd a76c a83c 4af6 0e3d
00000130: 096e 703b 27b6 2e3d 5f37 b73c 91ed f9bb
00000140: 7d91 d63b df09 183d 73b7 85bd 5f1b 273c

fc3.weight f4 [10, 84]
-0.033087675 0.09988969 -0.27916846 0.09479149 -0.005206529 -0.10507347 0.15841629 -0.12152107
0.026027247 -0.1264078 -0.012913781 0.052355945 0.013448326 0.06504086 -0.12980838 0.0014950491
-0.0072232927 -0.16046688 0.04781359 -0.017093735 0.0054002446 -0.121914215 -0.092690535 0.012340245
0.029693112 0.06914795 0.027280502 -0.11137572 -0.13802591 -0.22223744 0.047066513 -0.15054145
-0.08279208 0.105660506 -0.0012706087 -0.07957382 -0.021473944 -0.06800269 -0.10511436 -0.047323246
-0.052819382 -0.078077435 -0.0132387765 -0.10454163 -0.12030698 -0.11246483 0.13484126 0.16462182
0.061966818 0.03929745 0.0039920784 -0.033194035 -0.10339258 0.08493267 -0.059674017 0.076951
-0.04221096 0.0448056 0.08371005 0.042187463 0.06400211 -0.06294322 0.16143695 0.13370335
-0.0031205984 0.039836153 0.06003239 0.10877435 -0.10808417 -0.0052629705 -0.11332152 -0.090733424
0.16062346 0.16352084 0.10356889 0.14114961 0.10399948 0.07371602 0.18621536 -0.014246859
0.15237764 0.06026919 0.045838512 0.133431 0.08703568 -0.03775558 0.13479753 0.0011987578
-0.09611376 -0.06673297 0.073479794 0.0740949 0.13404018 0.13838498 0.008148408 -0.128045
-0.16659494 -0.02998337 0.14039 0.06453032 0.18407135 0.007597666 0.07527323 0.09373449
0.10348815 0.120613724 0.07955078 0.009469783 -0.0873205 -0.06570764 -0.13869116 0.03646058
-0.063948445 -0.11353129 -0.13088796 -0.005131907 -0.17256457 -0.07400417 -0.07430841 -0.11363319
0.015441541 0.052949406 0.0893388 0.098485224 -0.06458682 0.07972015 -0.060658723 -0.14811714
-0.10375473 0.22768196 0.011386201 0.035131432 0.17830873 -0.079650514 -0.24119772 0.051308565
0.023545608 -0.08064614 -0.04867261 0.08949423 -0.069222264 0.10059229 0.020520259 -0.051823717
-0.039770484 -0.14721882 0.04499072 -0.024714878 0.113114655 0.1516869 -0.060890395 0.052376557
0.035403013 -0.14335297 -0.0623817 -0.081200734 -0.1077286 -0.07324116 -0.010837266 0.061753247
-0.26507536 0.05189659 -0.11255191 -0.008711857 0.028707039 0.015533981 0.22655247 0.08449896
0.18688488 0.08154059 0.09239169 0.19173257 0.06885558 0.041224927 0.023918064 -0.07503647
-0.0019803452 0.07847145 -0.009770279 0.036094293 0.055411454 -0.100162104 0.117219254 0.06530907
0.02464741 0.008578762 0.09411965 0.052559275 -0.07064808 -0.23766385 -0.089256935 -0.10272193
0.075425 0.10570945 0.22899666 -0.09498331 0.11793092 -0.112592295 -0.109305 -0.18247995
-0.0837335 -0.085231334 0.059993956 -0.1452582 -0.06353861 0.05053058 0.019926317 -0.014647587
0.1635666 -0.13809943 -0.0053122304 -0.054571055 0.1814384 0.07559678 0.093753524 0.013924212
0.21632148 -0.07965141 0.11931019 -0.05735452 -0.088371925 0.09033259 -0.14077845 0.13491906
-0.07168061 -0.011841083 0.059920885 -0.0210584 -0.10050191 0.058751225 -0.22521043 -0.05409191
0.031390507 0.05028646 0.039765876 -0.06288625 -0.0045316312 0.021312064 -0.03565703 0.010663218
0.04495495 0.106992625 0.04670021 0.10664539 -0.15187821 -0.07263029 0.13617924 -0.13428576
-0.05702309 -0.14547807 0.06038365 0.01290656 -0.056998037 0.09706617 0.13076904 0.14375317
00000000: f186 07bd f792 cc3d 2bef 8ebe 0a22 c23d
00000010: 889b aabb c230 d7bd e137 223e 0ae0 f8bd
00000020: 1837 d53c 0c71 01be 5394 53bc 3073 563d
00000030: 5e56 5c3c 2434 853d 7dec 04be 86f5 c33a
00000040: 5fb1 ecbb 6e51 24be 2fd8 433d 2908 8cbc
00000050: 89f4 b03b 29ae f9bd 89d4 bdbd bd2e 4a3c
00000060: f83e f33c 719d 8d3d 5c7b df3c f418 e4bd
00000070: aa56 0dbe 3692 63be d1c8 403d 8a27 1abe
00000080: e58e a9bd 8964 d83d 8e8a a6ba 99f7 a2bd
00000090: 20ea afbc ff44 8bbd 3346 d7bd 05d6 41bd
000000a0: 2359 58bd 10e7 9fbd 74e7 58bc ec19 d6bd
000000b0: 8263 f6bd f653 e6bd d413 0a3e 9f92 283e
000000c0: ebd0 7d3d 5df6 203d fbcf 823b 78f6 07bd
000000d0: 7dbf d3bd 2ef1 ad3d be6c 74bd 7c98 9d3d
000000e0: 66e5 2cbd 1486 373d 2d70 ab3d c3cc 2c3d
000000f0: 8a13 833d 60e8 80bd ba4f 253e 88e9 083e
00000100: f482 4cbb 3c2b 233d 86e4 753d 16c5 de3d
00000110: 3c5b ddbd ff74 acbb 1d15 e8bd 72d2 b9bd
00000120: 7a7a 243e 0272 273e ed1b d43d 8689 103e
00000130: aefd d43d 6df8 963d 3daf 3e3e a86b 69bc
00000140: e208 1c3e d4dc 763d 2ac1 3b3d 23a2 083e
00000150: c33f b23d 98a5 1abd 5d08 0a3e a31f 9d3a
00000160: 4ad7 c4bd 4cab 88bd 937c 963d 11bf 973d
00000170: d441 093e cbb4 0d3e e680 053c 3a1e 03be
00000180: dd97 2abe af9f f5bc 65c2 0f3e 7928 843d
00000190: 337d 3c3e d7f5 f83b da28 9a3d def7 bf3d
000001a0: 98f1 d33d 5404 f73d 85eb a23d 2627 1b3c
000001b0: 17d5 b2bd ba91 86bd 0e05 0ebe b057 153d
000001c0: 67f7 82bd 1883 e8bd 7e07 06be 8e29 a8bb
000001d0: c4b4 30be 808f 97bd 022f 98bd 85b8 e8bd
000001e0: 84fe 7c3c 7ae1 583d 43f7 b63d 9fb2 c93d
000001f0: 1846 84bd 5144 a33d 4875 78bd 05ac 17be
00000200: 5c7d d4bd 7625 693e 308d 3a3c fae5 0f3d
00000210: 9096 363e cf1f a3bd 89fc 76be ee28 523d
00000220: b8e2 c03c ce29 a5bd ee5c 47bd c048 b73d
00000230: 67c4 8dbd 5503 ce3d 1a1a a83c 1b45 54bd
00000240: 60e6 22bd 88c0 16be 3048 383d db76 cabc
00000250: a8a8 e73d d053 1b3e 3568 79bd cd88 563d
00000260: c002 113d 1fcb 12be f483 7fbd 924c a6bd
00000270: d0a0 dcbd 76ff 95bd ca8e 31bc f9f0 7c3d
00000280: f5b7 87be 8591 543d 9e81 e6bd 2dbc 0ebc
00000290: 062b eb3c 3d82 7e3c 5ffd 673e ca0d ad3d
000002a0: c05e 3f3e c1fe a63d db37 bd3d 8b55 443e
000002b0: 2804 8d3d 78db 283d d1ef c33c b9ac 99bd
000002c0: aec8 01bb a4b5 a03d 8513 20bc 9cd7 133d
000002d0: 1ff7 623d ca21 cdbd a610 f03d c3c0 853d
000002e0: 5de9 c93c f08d 0c3c cec1 c03d 6548 573d
000002f0: f1af 90bd 275e 73be 57cc b6bd e05f d2bd
00000300: 6c78 9a3d 327e d83d 1a7e 6a3e 9c86 c2bd
00000310: c485 f13d ca96 e6bd 4ddb dfbd 06dc 3abe
00000320: 787c abbd c48d aebd 39bc 753d 91be 14be
00000330: 8820 82bd 27f9 4e3d 843c a33c 6ffc 6fbc
00000340: 017e 273e f069 0dbe 3812 aebb e685 5fbd
00000350: fdca 393e 7cd2 9a3d d901 c03d 6122 643c
00000360: 6183 5d3e 4720 a3bd e758 f43d 93ec 6abd
00000370: 57fc b4bd 4b00 b93d 3a28 10be 3928 0a3e
00000380: 49cd 92bd 1a01 42bc 9a6f 753d aa82 acbc
00000390: f2d3 cdbd 20a5 703d 909d 66be 7b8f 5dbd
000003a0: 5593 003d 2df9 4d3d 8be1 223d 82ca 80bd
000003b0: 147e 94bb a396 ae3c 1b0d 12bd c7b4 2e3c
000003c0: af22 383d f31e db3d b848 3f3d e668 da3d
000003d0: f685 1bbe 31bf 94bd 9272 0b3e 3582 09be
000003e0: 0b91 69bd 34f8 14be d954 773d 0976 533c
000003f0: c676 69bd a1ca c63d 52e8 053e 0834 133e

fc3.bias f4 [10]
-0.11115396 -0.057754602 0.03056004 0.018499127 -0.052474525 -0.04507541 0.0461012 0.0042771497
-0.07227267 -0.024204088
00000000: b0a4 e3bd 1790 6cbd 0d59 fa3c 7b8b 973c
00000010: 87ef 56bd fea0 38bd 9dd4 3c3d 5527 8c3b
00000020: b203 94bd a747 c6bc
