Project3/checkpoints/LeNet5/epoch-1.pth (torch, 243143 bytes, 10 tensors)

conv1.weight f4 [6, 1, 3, 3]
0.34274715 0.28670907 0.22525944 0.07567054 0.14142366 -0.050982915 0.4052045 0.46173096
0.22002047 -0.032579463 0.27815476 -0.18545751 0.3752223 0.3367693 0.045462675 -0.11467726
-0.1145653 -0.026956946 0.63380283 0.6641051 0.59546167 0.6965472 0.699935 0.4660965
0.52294844 0.26388752 -0.023465954 0.1677123 0.25357875 -0.013015046 0.006349723 -0.24835894
0.031332273 0.025084842 -0.250109 0.008412831 0.1783189 -0.1702951 0.29897055 0.31341702
0.14883713 -0.3139683 -0.018834908 0.034175057 0.27909926 0.01813588 -0.299603 -0.22812088
0.32753906 -0.15612529 0.15818256 0.17869999 0.09025602 -0.12508716
00000000: 8e7c af3e 88cb 923e 69aa 663e 28f9 9a3d
00000010: 5dd1 103e 76d3 50bd f776 cf3e 0068 ec3e
00000020: 0c4d 613e 0b72 05bd 4d6a 8e3e 93e8 3dbe
00000030: 231d c03e 076d ac3e 1237 3a3d e9db eabd
00000040: 36a1 eabd d0d4 dcbc e740 223f cb02 2a3f
00000050: 2d70 183f eb50 323f f12e 333f 33a4 ee3e
00000060: f3df 053f 441c 873e ac3b c0bc c6bc 2b3e
00000070: 13d5 813e 0f3d 55bc 5611 d03b ce51 7ebe
00000080: 4556 003d ba7e cd3c 490e 80be f9d5 093c
00000090: 3b99 363e d761 2ebe ab12 993e 3278 a03e
000000a0: c368 183e 74c0 a0be aa4b 9abc 25fb 0b3d
000000b0: 19e6 8e3e b291 943c 9065 99be 8598 69be
000000c0: 33b3 a73e 4fdf 1fbe 9cfa 213e 21fd 363e
000000d0: 26d8 b83d d916 00be

conv1.bias f4 [6]
-0.053632773 0.07386672 0.4525388 0.17136255 0.14155595 -0.007588471
00000000: 0aae 5bbd 6f47 973d 2ab3 e73e aa79 2f3e
00000010: 0bf4 103e b5a8 f8bb

conv2.weight f4 [16, 6, 3, 3]
-0.114901915 0.17523952 -0.048053525 -0.061580606 0.15226652 0.039072774 0.12420132 0.088425756
0.078307025 0.07655079 0.11303009 0.15863965 0.08132241 0.11933524 0.024412407 -0.094276674
0.07532694 0.1201825 -0.15770614 0.2543216 0.08820991 0.1234373 0.2654505 -0.1188852
0.26443243 0.14640802 -0.17908923 -0.11230454 0.06478194 0.14206795 -0.08843677 -0.100716
-0.08063863 -0.039662804 -0.038542464 -0.06561457 0.09699477 0.008033465 0.12935887 -0.12299922
0.1510039 -0.04806107 -0.030226067 0.08088366 0.08926252 -0.019879026 0.034184672 0.119122945
-0.031914 -0.089957036 0.06545035 -0.056124244 -0.031058114 0.065705046 -0.0016011085 0.09200631
-0.022483192 -0.07771237 0.026424127 0.17631368 -0.06728167 -0.025376353 -0.010582675 0.09845777
0.025457952 0.0869439 -0.0342028 -0.0684909 -0.11665274 -0.06781592 -0.11525333 0.10038235
-0.08822202 0.17730339 0.020424172 0.060083847 0.17808507 -0.032922447 -0.17192344 0.05924474
0.05256602 0.025022231 0.076302275 0.018715017 0.0007888329 -0.057380337 0.13185006 -0.014051715
-0.031425443 -0.06434422 -0.09355845 0.0022427219 0.071166106 0.087827556 -0.081288084 0.0723789
0.05736144 -0.030809656 0.08907692 0.012671536 -0.10897584 0.06651605 -0.0038711415 -0.12149079
0.06694533 0.020600067 -0.040122457 -0.10700173 -0.047508582 0.16781242 0.06599909 -0.008991145
0.017063014 -0.08768845 -0.16420375 0.04629091 -0.04682926 -0.04418514 0.06906107 -0.06628841
0.11471886 -0.05945749 0.1370093 0.068160295 -0.07385477 -0.019346751 0.13149038 0.23098499
0.16684969 -0.08209398 -0.096414305 0.11101179 -0.047575425 -0.2270937 -0.14629161 0.05913664
0.0741937 -0.030125657 -0.018297046 0.005004498 -0.10727495 0.0006804485 0.13313714 -0.06367991
0.07353654 0.13384885 0.0059536053 0.04266633 -0.05572853 -0.065943055 -0.06669362 0.075106926
0.0934484 -0.10161618 -0.07053648 -0.041453086 0.11428484 -0.010542952 -0.10185061 0.035354547
-0.013642438 -0.09398788 -0.018178806 0.13481517 0.07717429 0.08218464 -0.12272772 0.049576715
-0.071910426 0.0897666 -0.01634885 0.09430341 0.0045220037 -0.09337027 -0.023559995 -0.13430011
-0.04857595 -0.0032702233 0.045565784 -0.03473135 0.13890181 0.036848396 0.029993517 0.05010947
-0.01429972 -0.09391024 -0.119368926 -0.014189505 -0.14011475 -0.086832695 -0.043632157 -0.063382454
0.054622687 -0.11609033 -0.076605365 -0.104384504 0.04036833 0.13404053 0.098047815 0.038719926
0.016065687 0.017079791 -0.09208517 -0.08029209 0.10015914 0.053637035 -0.060906723 -0.10947862
-0.003971354 -0.12565997 -0.064929664 -0.04712151 0.013310525 0.058357988 0.03461958 -0.10295973
-0.11995254 -0.0020164119 0.098305896 -0.0456212 0.07415313 -0.09169517 -0.008630157 -0.031997535
-0.084965885 0.04339525 0.12556037 -0.050546393 0.02810481 -0.11368851 -0.10237298 -0.083054006
-0.0400558 0.033064343 0.20137993 0.23795307 0.112227716 -0.1296539 -0.1695028 0.0651767
-0.07125257 -0.01926488 -0.039522905 -0.032579966 0.09240713 -0.047399774 0.047704812 0.11966056
0.049211927 0.05181083 -0.03857454 -0.044511303 0.0014615819 0.08308429 0.01968282 -0.11215049
00000000: b251 ebbd fd71 333e c6d3 44bd f23b 7cbd
00000010: c1eb 1b3e c60a 203d 435d fe3d 9018 b53d
00000020: 6f5f a03d a9c6 9c3d 527c e73d 6f72 223e
00000030: 5d8c a63d 0966 f43d 87fc c73c 2114 c1bd
00000040: 0345 9a3d 3e22 f63d b87d 21be 7136 823e
00000050: 66a7 b43d b2cc fc3d 21e9 873e 157a f3bd
00000060: b063 873e fceb 153e 2b63 37be ecff e5bd
00000070: 65ac 843d 437a 113e 561e b5bd 3144 cebd
00000080: de25 a5bd 7775 22bd b4de 1dbd ef60 86bd
00000090: 32a5 c63d cb9e 033c a776 043e 04e7 fbbd
000000a0: c4a0 1a3e afdb 44bd a89c f7bc 55a6 a53d
000000b0: 45cf b63d 57d9 a2bc 3a05 0c3d bbf6 f33d
000000c0: 41b8 02bd 653b b8bd d50a 863d 89e2 65bd
000000d0: 966d febc 5e90 863d 49dc d1ba ce6d bc3d
000000e0: ac2e b8bc aa27 9fbd 6977 d83c 938b 343e
000000f0: f9ca 89bd 12e2 cfbc f562 2dbc 3aa4 c93d
00000100: 328d d03c a50f b23d 3c18 0cbd f544 8cbd
00000110: a2e7 eebd 13e3 8abd f009 ecbd 4395 cd3d
00000120: bfad b4bd 058f 353e 9850 a73c 7b1a 763d
00000130: ef5b 363e b0d9 06bd b30c 30be 9daa 723d
00000140: 784f 573d 6cfb cc3c 5e44 9c3d 3c50 993c
00000150: aec9 4e3a a507 6bbd b403 073e 2a39 66bc
00000160: f7b7 00bd e7c6 83bd 939b bfbd a1fa 123b
00000170: 89bf 913d efde b33d 5e7a a6bd 643b 943d
00000180: d4f3 6a3d 8864 fcbc f66d b63d 469c 4f3c
00000190: ba2e dfbd 9139 883d fab2 7dbb 2ad0 f8bd
000001a0: a21a 893d 79c1 a83c 7257 24bd b923 dbbd
000001b0: 5c98 42bd 05d7 2b3e 882a 873d 984f 13bc
000001c0: bcc7 8b3c 0196 b3bd 0725 28be 8a9b 3d3d
000001d0: 0ad0 3fbd 7afb 34bd e46f 8d3d 38c2 87bd
000001e0: b9f1 ea3d b289 73bd 2a4c 0c3e a097 8b3d
000001f0: 2b41 97bd 147d 9ebc 6aa5 063e 5487 6c3e
00000200: a5da 2a3e e320 a8bd dd74 c5bd 265a e33d
00000210: 73de 42bd 408b 68be 78cd 15be 4339 723d
00000220: def2 973d 15ca f6bc b0e3 95bc c6fc a33b
00000230: f8b2 dbbd 2060 323a 1a55 083e 9d6a 82bd
00000240: 539a 963d ac0f 093e 7616 c33b e4c2 2e3d
00000250: 9943 64bd 270d 87bd aa96 88bd a9d1 993d
00000260: e061 bf3d 251c d0bd 6e75 90bd b6ca 29bd
00000270: 2c0e ea3d 59bc 2cbc 0d97 d0bd eecf 103d
00000280: 8884 5fbc b87c c0bd b8eb 94bc fd0c 0a3e
00000290: 8e0d 9e3d 6c50 a83d ac58 fbbd f410 4b3d
000002a0: c645 93bd 8dd7 b73d 06ee 85bc 2522 c13d
000002b0: 512d 943b ea38 bfbd e400 c1bc f885 09be
000002c0: 93f7 46bd 3e51 56bb 30a3 3a3d 7642 0ebd
000002d0: 473c 0e3e 58ee 163d f7b4 f53c 963f 4d3d
000002e0: 5f49 6abc 0354 c0bd b277 f4bd 197b 68bc
000002f0: 3e7a 0fbe 57d5 b1bd a2b7 32bd a9ce 81bd
00000300: 0abc 5f3d c4c0 edbd 46e3 9cbd 8bc7 d5bd
00000310: 4359 253d ec41 093e 4bcd c83d c998 1e3d
00000320: 309c 833c ebea 8b3c 2697 bcbd 2e70 a4bd
00000330: 3c20 cd3d 82b2 5b3d 5479 79bd 5436 e0bd
00000340: 2222 82bb 02ad 00be d8f9 84bd 7c02 41bd
00000350: 6314 5a3c c908 6f3d 43cd 0d3d 8ddc d2bd
00000360: ada9 f5bd c725 04bb 9a54 c93d 4cdd 3abd
00000370: 99dd 973d adca bbbd 8165 0dbc d90f 03bd
00000380: 9802 aebd 38bf 313d e692 003e bc09 4fbd
00000390: 0f3c e63c 86d5 e8bd eda8 d1bd 3818 aabd
000003a0: 8d11 24bd 7a6e 073d 8a36 4e3e f8a9 733e
000003b0: a5d7 e53d fec3 04be 2492 2dbe 5d7b 853d
000003c0: deec 91bd 62d1 9dbc c5e2 21bd 9272 05bd
000003d0: f33f bd3d 4426 42bd 1f66 433d 9810 f53d
000003e0: 7292 493d 9837 543d 5600 1ebd 7c51 36bd
000003f0: 8d92 bf3a 1928 aa3d de3d a13c 28af e5bd

conv2.bias f4 [16]
0.005977929 0.09927127 -0.092750534 -0.09332995 -0.09306027 -0.05766851 0.106604524 -0.03699037
0.0943767 0.08221291 0.057856157 0.034735892 0.12671284 -0.039701033 0.070678756 -0.021878842
00000000: 81e2 c33b bc4e cb3d fef3 bdbd c623 bfbd
00000010: 6296 bebd d135 6cbd 7953 da3d 3783 17bd
00000020: 9248 c13d 3e5f a83d 94fa 6c3d 3947 0e3d
00000030: 03c1 013e 8d9d 22bd 06c0 903d 423b b3bc

fc1.weight f4 [120, 400]
0.010805461 0.00923689 -0.01751733 0.044690453 -0.035424024 -0.02275477 -0.0012122397 -0.009174724
0.033559673 -0.0339908 -0.011260622 -0.023149531 -0.021679332 0.0020657515 -0.021932846 0.0029388429
0.069095515 0.081318595 0.024229048 0.036172763 0.016390907 0.008618151 0.049838766 -0.03990961
-0.054836933 0.00078805245 0.048409805 0.019289989 0.047929257 -0.020559367 0.023067731 0.0047061513
-0.011290076 0.03313936 0.02420004 0.03130203 -0.018711992 -0.014739374 0.018306036 -0.03936819
0.031248635 0.020865984 -0.03021035 0.0076512056 -0.029957833 0.0013591353 0.023586374 -0.031201223
-0.031008203 0.023220208 0.018556528 0.041475926 0.0060136756 -0.03291426 -0.0066942335 -0.032492246
-0.051609725 0.036249604 0.030352926 0.041860905 -0.024581794 0.015692463 0.03235364 0.007146356
0.05202231 0.03477818 -0.07062238 0.02010682 -0.01866615 0.016380664 -0.041806523 0.036528993
0.004358199 0.010171572 0.040167574 0.01682926 -0.035694722 0.026875084 -0.0099998 0.019323025
-0.026693396 -0.025717368 0.0037594463 0.041673552 -0.04482244 0.0059880503 0.00036615913 0.04320311
0.018809024 0.030953659 -0.035099845 0.03304302 0.023520332 -0.018878039 0.03781303 -0.01895591
-0.010030884 0.009185182 -0.00787774 0.022931084 -0.045856945 -0.0040091164 0.011980887 0.049485654
0.040367573 0.010715442 -0.049699854 -0.038771123 0.023560347 -0.029955938 -0.04697918 0.004857895
-0.012711373 0.04104146 0.013687559 0.04574064 0.0070331623 0.008497943 -0.014480554 0.0067237676
0.04032318 -0.054048788 0.02296728 0.013051213 0.032483567 0.03955361 0.044924993 -0.019020809
0.007474561 -0.045931365 -0.04832751 0.013557731 0.06036803 0.04783433 -0.006211885 -0.003909978
0.009044374 0.008578565 -0.05600052 -0.025938082 0.009356966 -0.0010875548 0.026313879 0.033678703
0.04306203 0.035312608 0.015019439 -0.020528141 -0.024382487 0.018860603 0.00021317689 0.024366561
-0.045709584 -0.008014263 -0.008287703 -0.013350722 -0.015861144 -0.025628626 0.021101858 -0.033501543
-0.025568254 0.016938582 -0.015813874 -0.04878382 0.02880668 -0.04581083 0.03766797 -0.0142253265
-0.020435063 0.040407427 0.011188298 0.022312911 0.0002775873 -0.030856216 0.03813228 0.029825991
-0.01072787 0.01048141 -0.0065959333 -0.046761055 -0.021390192 0.02131982 0.04532771 0.035507485
-0.0038280778 0.008666275 -0.014804158 -0.057985105 -0.006789539 0.0032626411 -0.02072388 -0.036461778
0.031371456 -0.013969751 0.017527284 -0.026401605 0.0048597804 0.08198691 0.020396264 -0.006551578
-0.02199024 0.024817409 0.004944036 0.04158683 0.0152229145 0.0011972254 0.021928014 0.05617603
-0.051951103 0.03490231 -0.030620672 0.012816679 -0.027571285 -0.026150478 0.054105267 0.017649805
-0.024007373 -0.0008931849 -0.009619701 -0.041215748 0.05228348 0.05379524 -0.011827593 -0.0092705535
0.014513876 -0.009417887 0.03830266 0.028677605 0.031236295 -0.046061486 0.04462359 0.022584252
0.028152408 -0.025994156 -0.0048589515 -0.031258654 0.01319082 -0.040541768 -0.031181913 -0.048870016
0.042228628 0.029062588 -0.034992106 -0.04172929 0.006260295 0.017607227 -0.031695247 -0.03978074
0.041050244 -0.0014267619 0.020954551 0.016045917 -0.016326934 0.04388946 -0.019066786 0.023703706
00000000: 6309 313c 5356 173c 8180 8fbc 560d 373d
00000010: c818 11bd 3668 babc 04e4 9eba 9551 16bc
00000020: de75 093d f039 0bbd 797e 38bc 16a4 bdbc
00000030: db98 b1bc 8f61 073b 83ac b3bc 9a99 403b
00000040: f381 8d3d 5d8a a63d ff7b c63c e429 143d
00000050: 3946 863c 2533 0d3c bc23 4c3d 4278 23bd
00000060: b19c 60bd 4e95 4e3a 5c49 463d 0a06 9e3c
00000070: 7851 443d 1e6c a8bc 8af8 bc3c 0f36 9a3b
00000080: 03fa 38bc 23bd 073d 2a3f c63c 8f36 003d
00000090: e449 99bc 6a7d 71bc 8af6 953c 8a40 21bd
000000a0: 23fd ff3c 24ef aa3c b27b f7bc f7b6 fa3b
000000b0: 216a f5bc 0325 b23a 3638 c13c b599 ffbc
000000c0: ea04 febc 4e38 be3c dc03 983c a9e2 293d
000000d0: 5e0e c53b 1ad1 06bd 4d5b dbbb 9716 05bd
000000e0: b864 53bd 777a 143d b3a6 f83c 5776 2b3d
000000f0: c25f c9bc 7b8d 803c 4085 043d fb2b ea3b
00000100: 5915 553d 9173 0e3d 77a2 90bd 0fb7 a43c
00000110: c1e9 98bc be30 863c 513d 2bbd 6d9f 153d
00000120: 39cf 8e3b aaa6 263c c186 243d 84dd 893c
00000130: a134 12bd 2329 dc3c 33d6 23bc 524b 9e3c
00000140: 1cac dabc 3bad d2bc 0b61 763b e3b1 2a3d
00000150: bc97 37bd 6837 c43b 0cf9 bf39 bff5 303d
00000160: 6215 9a3c 8792 fd3c dbc4 0fbd 1e58 073d
00000170: b6ad c03c 1ea6 9abc d6e1 1a3d 6d49 9bbc
00000180: 9458 24bc 727d 163c a311 01bc f8d9 bb3c
00000190: 7ed4 3bbd e85e 83bb 7b4b 443c 78b1 4a3d
000001a0: 7858 253d d28f 2f3c 1392 4bbd 78ce 1ebd
000001b0: a101 c13c 2866 f5bc 3e6d 40bd fa2e 9f3b
000001c0: 5d43 50bc 171b 283d c941 603c 8a5a 3b3d
000001d0: 7176 e63b f53a 0b3c d83f 6dbc 0d53 dc3b
000001e0: eb29 253d 4362 5dbd e125 bc3c c1d4 553c
000001f0: 7d0d 053d f702 223d 4503 383d 87d1 9bbc
00000200: 2aed f43b 8722 3cbd 11f3 45bd 3f21 5e3c
00000210: 7844 773d eeed 433d 118d cbbb 461f 80bb
00000220: db2e 143c 1c8d 0c3c cd60 65bd 1a7c d4bc
00000230: f64d 193c 498c 8eba 3490 d73c aef2 093d
00000240: d061 303d f4a3 103d 1814 763c a22a a8bc
00000250: c8bd c7bc 8d81 9a3c 3c88 5f39 629c c73c
00000260: f939 3bbd 414e 03bc 25c9 07bc fdbc 5abc
00000270: 3bef 81bc 20f3 d1bc cedd ac3c ea38 09bd
00000280: 8474 d1bc c8c2 8a3c 198c 81bc 8bd1 47bd
00000290: fdfb eb3c 23a4 3bbd bb49 1a3d 5811 69bc
000002a0: 6f67 a7bc 4282 253d 204f 373c 91c9 b63c
000002b0: 2389 9139 2dc6 fcbc 9830 1c3d a355 f43c
000002c0: f3c3 2fbc 38ba 2b3c b322 d8bb 8588 3fbd
000002d0: 7c3a afbc e7a6 ae3c 8da9 393d 4c70 113d
000002e0: 7de0 7abb fefc 0d3c 248d 72bc ca81 6dbd
000002f0: c87a debb 09d2 553b 20c5 a9bc f258 15bd
00000300: 5b7f 003d 62e1 64bc 6195 8f3c 2e48 d8bc
00000310: cb3e 9f3b c1e8 a73d 1116 a73c 9fae d6bb
00000320: e024 b4bc e14d cb3c 9401 a23b f456 2a3d
00000330: 8869 793c 38ec 9c3a 61a2 b33c d618 663d
00000340: aeca 54bd baf5 0e3d 34d8 fabc 0cfd 513c
00000350: 2ddd e1bc 8739 d6bc 7c9d 5d3d 5396 903c
00000360: 1cab c4bc a024 6aba f39b 1dbc d8d1 28bd
00000370: 3427 563d 6658 5c3d 85c8 41bc 85e3 17bc
00000380: 9ccb 6d3c 7b4d 1abc 40e3 1c3d 4ced ea3c
00000390: 42e3 ff3c f8aa 3cbd 3ac7 363d 9c02 b93c
000003a0: e19f e63c b2f1 d4bc d737 9fbb 1309 00bd
000003b0: 4f1e 583c 200f 26bd 3671 ffbc ed2b 48bd
000003c0: edf7 2c3d aa14 ee3c e253 0fbd 55ec 2abd
000003d0: 2923 cd3b 083d 903c e0d2 01bd 21f1 22bd
000003e0: 4d24 283d 2f02 bbba e1a8 ab3c ba72 833c
000003f0: 10c0 85bc 6fc5 333d f331 9cbc 462e c23c

fc1.bias f4 [120]
0.04777458 0.0015650432 -0.03177474 0.045288652 0.0040688072 0.04779501 0.026257692 0.016358009
0.02743958 -0.03805105 -0.022091271 0.02926233 -0.015915696 -0.002547152 0.028476596 0.028688725
-0.041761335 0.052427392 -0.008507219 -0.032134164 0.03423235 -0.008247595 -0.041662153 0.009134789
0.00898 -0.031626392 -0.026748424 -0.030535907 0.030445203 0.009421716 -0.021218896 0.041284695
0.039957236 -0.042006005 0.03309674 0.050089847 0.05036073 0.02543104 0.026219025 0.025250297
0.018792465 0.0073804916 0.034337264 -0.016587846 -0.0075799464 0.013792292 0.028413728 0.022211613
-0.04119608 -0.039244026 -0.0037329644 0.052807406 -0.047021173 0.0080162035 0.012316998 0.023704791
0.03825546 -0.031145899 0.03632494 -0.026698804 0.015038603 -0.04238689 0.006010305 -0.03557639
-0.020974 0.025873546 0.047290288 0.02686348 -0.025092842 0.0028947745 0.029968396 0.03972492
-0.0012865876 0.021852622 -0.027342092 0.0113727385 -0.036096815 -0.01974462 0.048138257 -0.007605889
-0.018362481 -0.017772146 -0.04118541 -0.03943428 -0.008911193 0.041009326 0.045784842 -0.04151663
0.009041292 0.027114894 -0.034820173 -0.042978406 -0.0043549757 0.043114394 0.0010097334 0.042274397
-0.03506176 0.0041155526 0.023048077 -0.008763851 0.04419559 -0.011625953 0.02677265 -0.00062639365
-0.015265052 0.022740671 0.03374404 0.0010692143 -0.014713896 -0.024580846 0.015847364 -0.028956247
0.046572983 0.029942546 -0.0077766906 -0.007742823 0.017420916 -0.019765086 -0.003570344 -0.022213938
00000000: 47af 433d 2322 cd3a 3b26 02bd 9880 393d
00000010: a153 853b b3c4 433d 5f1a d73c 3b01 863c
00000020: f8c8 e03c 6bdb 1bbd c1f8 b4bc 8eb7 ef3c
00000030: a261 82bc 1fee 26bb c047 e93c 9e04 eb3c
00000040: ef0d 2bbd 1bbe 563d dd61 0bbc 1d9f 03bd
00000050: 3837 0c3d ec20 07bc efa5 2abd 15aa 153c
00000060: da20 133c ad8a 01bd 831f dbbc 7026 fabc
00000070: 3868 f93c 8b5d 1a3c 40d3 adbc 241a 293d
00000080: 33aa 233d 7d0e 2cbd 7290 073d 032b 4d3d
00000090: 0e47 4e3d c254 d03c 48c9 d63c b6d9 ce3c
000000a0: a8f2 993c 0dd8 f13b 3ba5 0c3d 3ce3 87bc
000000b0: 3361 f8bb 11f9 613c e8c3 e83c 21f5 b53c
000000c0: 39bd 28bd 58be 20bd c0a4 74bb 944c 583d
000000d0: 4699 40bd 6556 033c 3ccd 493c 8d30 c23c
000000e0: c2b1 1c3d af25 ffbc 76c9 143d 73b7 dabc
000000f0: 7964 763c e09d 2dbd 18f2 c43b 8cb8 11bd
00000100: abd1 abbc c2f4 d33c 76b3 413d cd10 dc3c
00000110: 818f cdbc 42b6 3d3b 4880 f53c 99b6 223d
00000120: b7a2 a8ba 4504 b33c 86fc dfbc b954 3a3c
00000130: 41da 13bd 78bf a1bc 9f2c 453d d23a f9bb
00000140: ea6c 96bc e496 91bc 08b2 28bd d785 21bd
00000150: 4100 12bc 65f9 273d e388 3b3d 580d 2abd
00000160: ed21 143c 0e20 de3c 999f 0ebd 200a 30bd
00000170: 2fb4 8ebb b898 303d 0859 843a eb27 2d3d
00000180: ec9c 0fbd c2db 863b 52cf bc3c 4196 0fbc
00000190: 6f06 353d c87a 3ebc 5152 db3c 9134 24ba
000001a0: 451a 7abc a54a ba3c 3137 0a3d e124 8c3a
000001b0: 8e12 71bc c55d c9bc 55d2 813c a735 edbc
000001c0: 50c3 3e3d 124a f53c 9cd3 febb 82b7 fdbb
000001d0: 4fb6 8e3c 64ea a1bc 6ffc 69bb 01fa b5bc

fc2.weight f4 [84, 120]
0.009890519 0.046296287 0.11737978 -0.0075357426 0.079278596 -0.079555005 0.017715143 -0.085883625
0.020338034 -0.09068942 -0.06850527 0.07363082 0.026867472 0.07667955 0.04929911 0.096729524
0.040040903 -0.032542337 -0.08341856 0.019048212 -0.042908743 -0.010868629 0.017405532 -0.028791834
0.037548758 -0.05669351 -0.0045517976 0.04647259 0.045242943 0.07531469 -0.014005828 -0.10116968
0.087407336 0.08335724 0.008157877 -0.07593996 0.013366472 0.0237608 0.060236342 -0.051634848
-0.07297464 0.030686185 -0.06598071 0.039232668 0.02784842 0.07207277 -0.045444738 -0.07469002
-0.023058096 -0.03688926 -0.016503992 0.027694905 -0.071082786 0.028613718 0.09641379 -0.07400412
-0.00892597 0.015430485 0.02545869 0.034094073 -0.028754923 0.07679026 0.06434523 -0.066951185
0.11036347 0.064215094 -0.0742338 -0.03677527 -0.0072097955 0.071049504 -0.038831368 0.0882666
0.108634666 -0.0014139278 -0.1039937 0.0009397026 -0.09739943 -0.06990948 0.021999782 -0.065967984
0.0005183678 -0.021278294 -0.08786761 0.024849221 -0.011435783 -0.040791858 0.03206084 -0.03159985
-0.02145578 0.07123059 0.08541064 -0.035267454 0.08109043 0.0725587 0.07276167 0.028993981
0.07327229 -0.037668634 -0.053164918 0.035924606 0.055174466 0.07942718 -0.034590255 0.090473585
-0.033732567 -0.03479064 -0.044320866 -0.07749664 -0.07261145 -0.03271978 -0.05838391 -0.054058596
-0.060534634 0.08861386 0.026412576 -0.028517995 -0.030583698 0.03597478 0.0476157 -0.014366363
0.034710776 -0.032834295 -0.05311443 0.0688265 -0.05460281 -0.023622118 -0.08947663 0.03616764
0.01359141 0.0039261845 -0.032190755 -0.007891954 0.06819514 -0.007515128 0.0050462056 -0.007366477
-0.004382936 -0.031083666 0.040880848 -0.0053025214 0.06593009 -0.06318249 -0.01402635 -0.0724866
0.034975406 -0.0868562 0.06176386 -0.054737464 0.07532448 -0.009235569 -0.08963242 -0.089929
-0.020246046 0.08864119 0.0044022948 0.025675053 -0.0442776 -0.008764998 0.053232085 0.05365172
-0.011382453 -0.060855687 0.0051477198 -0.04453001 0.021682872 -0.029763563 0.050774805 0.045378655
-0.030318132 0.038262438 0.06402117 0.08883577 0.072439246 0.09430949 0.013581694 -0.015652107
-0.07820936 -0.065073766 0.060765773 -0.028566409 -0.06909871 -0.072858065 0.031511072 0.05820124
-0.027213076 -0.0025209507 0.08992002 -0.0027453017 -0.04711996 -0.031174513 0.07099705 -0.022531152
-0.040814016 0.016152043 0.09483088 -0.0682453 -0.042025894 0.03654169 0.0041308813 -0.08861199
-0.043820336 0.008305876 -0.0025895773 0.0766051 -0.040427122 0.013156943 -0.08380135 0.02114817
0.08798885 0.0669023 -0.06817476 0.050644055 -0.034987193 -0.052596867 -0.07844554 -0.06463184
0.085325845 -0.0868046 -0.014340676 -0.041611433 -0.07465917 -0.05425533 -0.06955375 -0.07355202
-0.015691796 0.02906727 -0.0041154125 0.02177335 0.04089432 -0.00018086832 0.027677575 -0.006463695
-0.028587572 0.054740984 0.0046026437 -0.060652755 -0.061043028 -0.054152865 0.08821331 -0.037031483
-0.047666814 -0.013596954 0.06496108 0.078325845 0.006450966 0.08854667 0.03597376 0.1263652
0.08053506 0.063460656 -0.042993523 0.1122438 0.061293285 0.056539726 0.03363865 -0.01540751
00000000: d80b 223c 2da1 3d3d cf64 f03d 64ee f6bb
00000010: d15c a23d bced a2bd 591f 913c c1e3 afbd
00000020: f39b a63c 60bb b9bd 7e4c 8cbd c1cb 963d
00000030: 2c19 dc3c 2b0a 9d3d dded 493d 211a c63d
00000040: ee01 243d 1d4b 05bd 5ad7 aabd ff0a 9c3c
00000050: 14c1 2fbd 5612 32bc 0c96 8e3c dadc ebbc
00000060: bacc 193d 7437 68bd 3f27 95bb 0b5a 3e3d
00000070: aa50 393d 973e 9a3d b378 65bc 0d32 cfbd
00000080: 9e02 b33d 33b7 aa3d 9ea8 053c 6986 9bbd
00000090: 0cff 5a3c 02a6 c23c 62ba 763d 107f 53bd
000000a0: ba73 95bd 9861 fb3c e520 87bd 6fb2 203d
000000b0: 5f22 e43c e39a 933d 4324 3abd 15f7 98bd
000000c0: 55e4 bcbc 3119 17bd 6133 87bc 6de0 e23c
000000d0: da93 91bd 5167 ea3c 9874 c53d 798f 97bd
000000e0: 3b3e 12bc 25d0 7c3c be8e d03c 3aa6 0b3d
000000f0: 728f ebbc 3644 9d3d 6fc7 833d b41d 89bd
00000100: 3e06 e23d 3483 833d e407 98bd aaa1 16bd
00000110: 2640 ecbb 6782 913d a40d 1fbd 1fc5 b43d
00000120: da7b de3d 8b53 b9ba a6fa d4bd 6056 763a
00000130: 5a79 c7bd b42c 8fbd e338 b43c 391a 87bd
00000140: 13e3 073a d14f aebc eff3 b3bd 9890 cb3c
00000150: 265d 3bbc 5d15 27bd 3a52 033d d86e 01bd
00000160: 08c4 afbc 58e1 913d c6eb ae3d 9b74 10bd
00000170: bd12 a63d a899 943d 1204 953d c984 ed3c
00000180: c80f 963d 6d4a 1abd 75c3 59bd ae25 133d
00000190: 9ffe 613d b8aa a23d 83ae 0dbd 374a b93d
000001a0: 292b 0abd a180 0ebd cc89 35bd 8fb6 9ebd
000001b0: 50b5 94bd 2d05 06bd f823 6fbd 8c6c 5dbd
000001c0: 2af3 77bd 2f7b b53d 305f d83c 929e e9bc
000001d0: aa8a fabc 4a5a 133d ae08 433d e560 6bbc
000001e0: e32c 0e3d 417d 06bd 848e 59bd e8f4 8c3d
000001f0: 32a7 5fbd 2c83 c1bc 863f b7bd 8524 143d
00000200: 81ae 5e3c 39a7 803b 74da 03bd 414d 01bc
00000210: e5a9 8b3d 7641 f6bb a45a a53b 7d62 f1bb
00000220: bb9e 8fbb 2ca3 febc ad72 273d c6c0 adbb
00000230: 5b06 873d d265 81bd c7ce 65bc db73 94bd
00000240: 5f42 0f3d aae1 b1bd 1afc 7c3d 6434 60bd
00000250: b943 9a3d c950 17bc 3491 b7bd b22c b8bd
00000260: 09db a5bc 8389 b53d 2041 903b 7d54 d23c
00000270: 6e5c 35bd 119b 0fbc e309 5a3d e8c1 5b3d
00000280: 787d 3abc d043 79bd 34ae a83b 1a65 36bd
00000290: 47a0 b13c b7d2 f3bc 3ef9 4f3d f8de 393d
000002a0: bb5d f8bc 13b9 1c3d 881d 833d 87ef b53d
000002b0: 075b 943d 5525 c13d c185 5e3c d938 80bc
000002c0: 3b2c a0bd 6545 85bd 88e5 783d 1a04 eabc
000002d0: a083 8dbd 9c36 95bd c111 013d 6c64 6e3d
000002e0: f5ed debc 8936 25bb fd27 b83d 85ea 33bb
000002f0: dc00 41bd b161 ffbc e766 913d 4093 b8bc
00000300: 992c 27bd 4a51 843c b136 c23d 31c4 8bbd
00000310: 5823 2cbd bdac 153d 585c 873b 347a b5bd
00000320: f47c 33bd 5e15 083c e6b5 29bb 22e3 9c3d
00000330: e996 25bd 3890 573c 0ba0 abbd ed3e ad3c
00000340: 8033 b43d 1304 893d 359f 8bbd 2470 4f3d
00000350: bb4e 0fbd d06f 57bd 0ea8 a0bd b35d 84bd
00000360: 51bf ae3d 9cc6 b1bd 28f5 6abc c070 2abd
00000370: e8e6 98bd d63a 5ebd 3272 8ebd 71a2 96bd
00000380: 158c 80bc 7c1e ee3c 95da 86bb 065e b23c
00000390: cd80 273d 78a7 3db9 15bc e23c 67cd d3bb
000003a0: 7c30 eabc 1538 603d c6d1 963b 066f 78bd
000003b0: 4108 7abd 65cf 5dbd 2ea9 b43d 53ae 17bd
000003c0: 473e 43bd c2c5 5ebc 510a 853d 4d69 a03d
000003d0: a062 d33b f557 b53d 3959 133d e165 013e
000003e0: 91ef a43d a9f7 813d fa19 30bd 14e0 e53d
000003f0: ab0e 7b3d 3396 673d aec8 093d c86f 7cbc

fc2.bias f4 [84]
-0.011871059 0.06964143 0.0030565057 0.03848328 0.015213722 0.0625579 0.0149466 0.06295482
-0.0877683 -0.03815119 0.052633885 0.03685348 0.03843252 0.0028352442 0.025932685 -0.0885499
-0.03672273 0.013738657 0.054017473 0.054120332 -0.00997397 0.03526993 -0.053929448 -0.008927695
-0.0121217845 -0.03802331 -0.004444708 0.10201765 0.10094022 0.024304708 0.009548551 -0.011194228
-0.030938191 0.042552862 -0.05620034 0.0030780523 -0.024630373 -0.023056103 -0.03593824 0.07736323
0.018563401 -0.026626244 0.03384179 -0.075225644 0.048943713 -0.021524513 -0.05710627 -0.010739698
0.02309901 -0.014469769 -0.030439742 0.04537829 -0.013157282 0.04021643 -0.06580962 -0.08096347
-0.037920497 0.07806675 0.049457405 0.0505987 -0.07064383 0.047164213 0.029497618 -0.050188243
0.09378827 4.200056e-05 0.0055250847 0.0921249 0.05676119 0.06919385 -0.07825782 -0.06852433
-0.0839453 -0.08774076 0.020719234 0.03568773 0.0025356729 0.042296898 0.020535775 -0.00843128
0.007858355 0.036781594 -0.06351946 0.010993408
00000000: d57e 42bc 2ba0 8e3d a84f 483b a5a0 1d3d
00000010: fa42 793c 5b1e 803d 96e2 743c 75ee 803d
00000020: debf b3bd 6c44 1cbd a196 573d adf3 163d
00000030: 6b6b 1d3d 81cf 393b c870 d43c a659 b5bd
00000040: 936a 16bd 1b18 613c 6d41 5d3d 48ad 5d3d
00000050: dd69 23bc 3477 103d 20e5 5cbd 7845 12bc
00000060: 739a 46bc 55be 1bbd eaa4 91bb a1ee d03d
00000070: bfb9 ce3d ab1a c73c 8771 1c3c ff67 37bc
00000080: 1772 fdbc e94b 2e3d 5432 66bd 26b9 493b
00000090: a3c5 c9bc 27e0 bcbc fa33 13bd 9d70 9e3d
000000a0: 4612 983c 481f dabc b09d 0a3d e70f 9abd
000000b0: 3479 483d 2d54 b0bc 44e8 69bd 8ff5 2fbc
000000c0: 233a bd3c 9c12 6dbc c45c f9bc 96de 393d
000000d0: a491 57bc fcb9 243d 32c7 86bd 2dd0 a5bd
000000e0: 8652 1bbd 76e1 9f3d d993 4a3d 9540 4f3d
000000f0: b6ad 90bd 432f 413d fda4 f13c 3092 4dbd
00000100: 1114 c03d c229 3038 c50b b53b fbab bc3d
00000110: 6c7e 683d 81b5 8d3d a345 a0bd 7c56 8cbd
00000120: 83eb abbd 6db1 b3bd 62bb a93c 4c2d 123d
00000130: 882d 263b 833f 2d3d a43a a83c 5a23 0abc
00000140: 54c0 003c 4ca8 163d 7e16 82bd b21d 343c

fc3.weight f4 [10, 84]
-0.018107235 0.093987636 -0.2642973 0.084149316 -0.005886866 -0.10501338 0.15478843 -0.10573991
0.017915688 -0.11414024 -0.012857125 0.08005881 0.019700902 0.057490263 -0.1193011 0.0026557785
-0.019331494 -0.14867012 0.047159616 -0.017093278 0.00460465 -0.13983952 -0.08543122 0.012340247
0.029696198 0.06904518 0.014644598 -0.1051953 -0.14345838 -0.21780325 0.04494979 -0.14293256
-0.06335549 0.10635927 0.01148898 -0.07566812 -0.025754353 -0.06800153 -0.105065174 -0.031657156
-0.053323194 -0.07863601 -0.0068533737 -0.11293742 -0.10696864 -0.11893788 0.13535626 0.17391367
0.043280944 0.04098511 0.023327492 -0.031602487 -0.103218436 0.09622046 -0.04380532 0.07673074
-0.04726173 0.032704428 0.08356412 0.041225355 0.049839966 -0.061337918 0.15744692 0.11991941
-0.012628636 0.022141369 0.060620043 0.11049414 -0.10028586 -0.01199286 -0.11751671 -0.08935594
0.14065002 0.14224547 0.103609584 0.14513034 0.09476055 0.069911435 0.16892943 -0.025134558
0.14475046 0.054336507 0.03866782 0.11499513 0.07441181 -0.029264757 0.15557867 -0.017305184
-0.10178612 -0.06679184 0.057146996 0.06097101 0.12074827 0.13406597 0.007095697 -0.1240549
-0.15898298 -0.030191991 0.12922506 0.064573884 0.1440827 0.008320511 0.056683786 0.093734615
0.10303835 0.13039503 0.04122696 0.009447508 -0.08755118 -0.06597514 -0.13568084 0.03215281
-0.058769982 -0.08269215 -0.12796648 0.01029398 -0.14409137 -0.07396601 -0.07353595 -0.09853933
0.015276074 0.05298983 0.08352664 0.082379624 -0.06412657 0.08616359 -0.06364692 -0.15353158
-0.09912689 0.21252915 -0.0018554204 0.029869007 0.1450549 -0.07918247 -0.20827796 0.063306876
0.028174182 -0.061878923 -0.03856855 0.06963047 -0.068731725 0.078205295 0.015666673 -0.050602872
-0.040125117 -0.14219087 0.052818894 -0.024533072 0.09884007 0.149127 -0.059257314 0.051394474
0.04373186 -0.14624137 -0.048871197 -0.08281102 -0.121059135 -0.085402 -0.010802608 0.034442462
-0.25187856 0.029960627 -0.120081596 -0.01325097 0.019633532 0.005731124 0.20611541 0.0786389
0.17402877 0.06535172 0.07975109 0.18020216 0.058866456 0.041396067 0.021638082 -0.06159389
0.004131801 0.07406888 -0.009491016 0.029562818 0.06025847 -0.08113006 0.10749263 0.06575202
0.019844392 -0.005736215 0.092980444 0.052559517 -0.072530136 -0.20067483 -0.085152194 -0.1027219
0.07543476 0.09974794 0.20016867 -0.091578916 0.10812012 -0.10287164 -0.09901337 -0.14623874
-0.09661994 -0.08622018 0.05891085 -0.13145825 -0.061533365 0.050534956 0.018257234 -0.0005975333
0.123626746 -0.118029706 -0.0052743475 -0.047960967 0.16190465 0.08818664 0.10369472 -0.010376921
0.20009649 -0.080295414 0.13809843 -0.022145543 -0.06424009 0.06279684 -0.11136589 0.13109177
-0.053644568 -0.002976443 0.061836686 -0.011053506 -0.09932576 0.055534523 -0.19017456 -0.049106356
0.023972016 0.060983926 0.041727733 -0.05477464 -0.0064759757 0.02079388 -0.02787148 0.0099071525
0.055363167 0.09987065 0.045508895 0.0951987 -0.12072991 -0.071448386 0.11839773 -0.11944718
-0.060898278 -0.12368346 0.05275552 0.028163714 -0.055048015 0.09620334 0.10798248 0.12396712
00000000: a055 94bc 977c c03d fa51 87be 7a56 ac3d
00000010: 9ce6 c0bb 4111 d7bd dc80 1e3e 2a8e d8bd
00000020: ecc3 923c 5cc2 e9bd b1a6 52bc e0f5 a33d
00000030: c963 a13c e97a 6b3d 2354 f4bd 920c 2e3b
00000040: 155d 9ebc fb3c 18be 712a 413d 3407 8cbc
00000050: 9be2 963b 1732 0fbe 90f6 aebd bf2e 4a3c
00000060: 7145 f33c 8f67 8d3d e5ef 6f3c a270 d7bd
00000070: c1e6 12be d107 5fbe 451d 383d ea5c 12be
00000080: 86c0 81bd e4d2 d93d 463c 3c3c e3f7 9abd
00000090: cbfa d2bc 6344 8bbd 692c d7bd efaa 01bd
000000a0: 6c69 5abd eb0b a1bd 4492 e0bb bc4b e7bd
000000b0: 6012 dbbd b495 f3bd d59a 0a3e 6d16 323e
000000c0: 5c47 313d 01e0 273d 4c19 bf3c 9c71 01bd
000000d0: 3064 d3bd 3c0f c53d 356d 33bd 0225 9d3d
000000e0: 8495 41bd 14f5 053d aa23 ab3d ebdb 283d
000000f0: fe24 4c3d 783d 7bbd c439 213e 4f98 f53d
00000100: 57e8 4ebc d161 b53c b94c 783d c04a e23d
00000110: ac62 cdbd b37d 44bc 9aac f0bd 3f00 b7bd
00000120: 8f06 103e cca8 113e 4331 d43d 0c9d 143e
00000130: d211 c23d ba2d 8f3d d6fb 2c3e fde6 cdbc
00000140: 7739 143e f58f 5e3d 2662 1e3d 9182 eb3d
00000150: 3865 983d a5bc efbc 0450 1f3e 9ac3 8dbc
00000160: 3e75 d0bd 29ca 88bd f812 6a3d bdbc 793d
00000170: de4a f73d 9748 093e 0583 e83b 7f10 febd
00000180: 6fcc 22be 3255 f7bc 9353 043e 503f 843d
00000190: 6a8a 133e c152 083c 422d 683d eff7 bf3d
000001a0: c505 d33d 4686 053e 9add 283d b8c9 1a3c
000001b0: 084e b3bd f91d 87bd ebef 0abe aab2 033d
000001c0: cbb8 70bd 805a a9bd a509 03be 15a8 283c
000001d0: b08c 13be 7e7b 97bd 049a 96bd fdce c9bd
000001e0: 8048 7a3c dd0b 593d 0410 ab3d a6b6 a83d
000001f0: cb54 83bd 8976 b03d 5159 82bd 6237 1dbe
00000200: 0a03 cbbd 3ea1 593e 9431 f3ba d9af f43c
00000210: 4689 143e 6b2a a2bd d146 55be 09a7 813d
00000220: 8bcd e63c c174 7dbd 0efa 1dbd 6b9a 8e3d
00000230: 38c3 8cbd 192a a03d 6557 803c f544 4fbd
00000240: 3c5a 24bd 7c9a 11be a058 583d 95f9 c8bc
00000250: aa6c ca3d c0b4 183e ccb7 72bd 0383 523d
00000260: 2e20 333d 4cc0 15be 2a2d 48bd d398 a9bd
00000270: daed f7bd 3ee7 aebd 6cfd 30bc 8a13 0d3d
00000280: 3af6 80be fd6f f53c 57ed f5bd 991a 59bc
00000290: 80d6 a03c 27cc bb3b eb0f 533e 6e0d a13d
000002a0: 9934 323e 1fd7 853d 8a54 a33d ea86 383e
000002b0: f41d 713d ec8e 293d 5942 b13c e049 7cbd
000002c0: 0f64 873b 6db1 973d 3580 1bbc b92d f23c
000002d0: 96d1 763d 8427 a6bd 1925 dc3d ffa8 863d
000002e0: b590 a23c dcf6 bbbb 886c be3d a648 573d
000002f0: ae8a 94bd b47d 4dbe 4664 aebd dc5f d2bd
00000300: 8a7d 9a3d a648 cc3d 04f9 4c3e ba8d bbbd
00000310: 156e dd3d 5eae d2bd 86c7 cabd 9cbf 15be
00000320: ade0 c5bd 3594 b0bd 814c 713d fe9c 06be
00000330: 690a 7cbd befd 4e3d 3290 953c c8a3 1cba
00000340: 0530 fd3d 8fb9 f1bd 6fd4 acbb b872 44bd
00000350: 55ca 253e 329b b43d e65d d43d f603 2abc
00000360: 18e6 4c3e ec71 a4bd ad69 0d3e 926a b5bc
00000370: 4f90 83bd a19b 803d cd13 e4bd ec3c 063e
00000380: 68ba 5bbd 6d10 43bb 7748 7d3d c419 35bc
00000390: 4e6b cbbd 2b78 633d 1fbd 42be bf23 49bd
000003a0: f660 c43c 48ca 793d b3ea 2a3d 5f5b 60bd
000003b0: 6c34 d4bb ed57 aa3c bb52 e4bc 9c51 223c
000003c0: 7dc4 623d fc88 cc3d 8967 3a3d 89f7 c23d
000003d0: 3e41 f7bd 8853 92bd 827a f23d b9a0 f4bd
000003e0: 7970 79bd c14d fdbd 2c16 583d 97b7 e63c
000003f0: 077a 61bd 4206 c53d eb25 dd3d 79e2 fd3d

fc3.bias f4 [10]
-0.109289564 -0.055487942 0.030807195 0.019207785 -0.047446217 -0.044305153 0.045247626 0.0051155323
-0.080163844 -0.027183264
00000000: 35d3 dfbd 5347 63bd 5f5f fc3c a559 9d3c
00000010: f756 42bd 5279 35bd 9355 393d 32a0 a73b
00000020: f12c a4bd 70af debc
