Project3/checkpoints/LeNet5/epoch-2.pth (torch, 243143 bytes, 10 tensors)

conv1.weight f4 [6, 1, 3, 3]
0.35646912 0.30174014 0.22305837 0.09255518 0.15932839 -0.05874366 0.425591 0.48336476
0.22549112 -0.028043097 0.28721604 -0.18424766 0.3819469 0.34415466 0.048125874 -0.123811774
-0.12473813 -0.036785115 0.6643556 0.72043085 0.64050114 0.74734294 0.7693854 0.5053586
0.528441 0.2758067 -0.024585312 0.17888786 0.28489098 0.01961909 -0.010141986 -0.24184261
0.03770004 -0.002231971 -0.25772288 -0.006148656 0.18024364 -0.18338647 0.27844596 0.3312567
0.15181531 -0.32229838 -0.017442195 0.042957455 0.28982908 0.030257637 -0.30560774 -0.23677759
0.33943355 -0.15964769 0.15678129 0.19310667 0.097470626 -0.11522722
00000000: 1f83 b63e af7d 9a3e 6a69 643e 928d bd3d
00000010: fb26 233e 319d 70bd 10e7 d93e 967b f73e
00000020: 25e7 663e a3ba e5bc fb0d 933e 6bab 3cbe
00000030: 8b8e c33e 0a35 b03e a31f 453d 0791 fdbd
00000040: b476 ffbd fdab 16bd 3513 2a3f 286e 383f
00000050: e2f7 233f de51 3f3f 71f6 443f 2e5f 013f
00000060: e947 073f 8936 8d3e 2367 c9bc 612e 373e
00000070: 3bdd 913e 37b8 a03c 932a 26bc 97a5 77be
00000080: 5b6b 1a3d 4246 12bb 41f4 83be aa7a c9bb
00000090: ca91 383e aac9 3bbe 7890 8e3e 7a9a a93e
000000a0: 7975 1b3e 4b04 a5be efe2 8ebc 28f4 2f3d
000000b0: 7a64 943e ddde f73c 9e78 9cbe d375 72be
000000c0: 3cca ad3e af7a 23be 468b 203e c1bd 453e
000000d0: ae9e c73d 40fc ebbd

conv1.bias f4 [6]
-0.04646244 0.079235375 0.48553002 0.17091553 0.14602521 -0.004226294
00000000: 664f 3ebd 2846 a23d 6497 f83e 7b04 2f3e
00000010: a287 153e b97c 8abb

conv2.weight f4 [16, 6, 3, 3]
-0.12558362 0.18592696 -0.04629122 -0.06609917 0.15624607 0.02630183 0.13265187 0.088797145
0.06327367 0.06835841 0.11529247 0.16093817 0.07103612 0.11940556 0.020878773 -0.09628381
0.07338026 0.11215308 -0.18429652 0.28058338 0.09445055 0.10337493 0.2708817 -0.15098521
0.26350817 0.13197598 -0.22199823 -0.11712877 0.058775503 0.14463454 -0.09549765 -0.10098478
-0.08044171 -0.04831093 -0.041766006 -0.07026913 0.09041544 0.008790488 0.13058482 -0.13119204
0.14869002 -0.051756732 -0.031098379 0.07981996 0.08202007 -0.0275411 0.029000886 0.118775405
-0.043132134 -0.09686413 0.06424217 -0.058306877 -0.02848275 0.065017104 -0.0010733692 0.09104729
-0.022626715 -0.08148962 0.027496295 0.18419532 -0.08013689 -0.030163914 -0.004432727 0.0988644
0.026782282 0.08646555 -0.032371584 -0.06674123 -0.11371944 -0.071903646 -0.11735365 0.10302948
-0.08752458 0.17407084 0.015017735 0.059947785 0.18002972 -0.021762865 -0.19793642 0.050767973
0.06680678 0.02562371 0.07546651 0.016985565 0.002785012 -0.05720364 0.12925775 -0.01398162
-0.032375395 -0.065825246 -0.09281716 0.0034486644 0.07202104 0.08794641 -0.0807219 0.07528215
0.052482005 -0.03381061 0.09037756 0.013957346 -0.10572115 0.07053393 -0.003991288 -0.12143577
0.07168192 0.018433405 -0.04311091 -0.10745201 -0.03461258 0.1791641 0.07933574 -0.016134875
0.007944099 -0.09431263 -0.18016838 0.032843117 -0.05908302 -0.034048777 0.07985504 -0.055611297
0.114873804 -0.06056295 0.13707998 0.060098413 -0.08212706 -0.028318737 0.1785611 0.27444795
0.21394253 -0.08405123 -0.099827595 0.11754535 -0.090392515 -0.26753992 -0.17983559 0.06293769
0.07850494 -0.027280351 -0.011381488 0.012855202 -0.097554095 -0.00036926044 0.1312399 -0.06444943
0.080151 0.1407347 0.014307212 0.042303212 -0.057699636 -0.067298934 -0.07302537 0.06913522
0.088059254 -0.09799089 -0.066113606 -0.03864815 0.11154831 -0.014978627 -0.10884536 0.035638455
-0.015777078 -0.09652018 -0.012549875 0.13983044 0.08035674 0.081240244 -0.12819822 0.046747323
-0.07908932 0.08097468 -0.018230306 0.0965814 0.008282215 -0.090483405 -0.023038257 -0.13581651
-0.049983732 -0.005078977 0.041327897 -0.03623306 0.15645061 0.056322005 0.042607907 0.053782538
-0.02279229 -0.10079593 -0.13435659 -0.03524787 -0.14609262 -0.08593176 -0.041263662 -0.060720783
0.057038996 -0.11370953 -0.075955465 -0.103718445 0.03952335 0.13337265 0.09991966 0.040470637
0.01808736 0.017650042 -0.09374291 -0.081604965 0.09836594 0.050414734 -0.062030215 -0.109381415
-0.006245842 -0.12643135 -0.06540064 -0.050843332 0.01160056 0.058414817 0.03225183 -0.10384824
-0.11500046 0.0023093286 0.103586525 -0.06070294 0.05976376 -0.1024778 -0.01254763 -0.033671506
-0.08515832 0.054720502 0.1384475 -0.03871019 0.023175882 -0.12021886 -0.10848315 -0.08753218
-0.043406878 0.030487351 0.24115579 0.28098774 0.1519207 -0.15766695 -0.19839546 0.045483306
-0.088691026 -0.026716486 -0.042050708 -0.026357029 0.10123868 -0.03865065 0.05315756 0.12592223
0.053544126 0.048891697 -0.040525097 -0.04646538 0.0060266885 0.08927808 0.025969576 -0.116648495
00000000: fe98 00be a363 3e3e dd9b 3dbd 005f 87bd
00000010: f8fe 1f3e ef76 d73c e4d5 073e 47db b53d
00000020: a095 813d 7eff 8b3d 751e ec3d facc 243e
00000030: 637b 913d e78a f43d f609 ab3c 7230 c5bd
00000040: 6448 963d 84b0 e53d 3ab8 3cbe a0a8 8f3e
00000050: 4a6f c13d 3cb6 d33d 02b1 8a3e de9b 1abe
00000060: 8bea 863e b624 073e 8153 63be 35e1 efbd
00000070: 95be 703d 141b 143e 4694 c3bd 1cd1 cebd
00000080: a0be a4bd afe1 45bd d512 2bbd 43e9 8fbd
00000090: bb2b b93d fb05 103c 07b8 053e 3557 06be
000000a0: 3242 183e defe 53bd 07c2 febc a678 a33d
000000b0: 23fa a73d df9d e1bc 4493 ed3c 8540 f33d
000000c0: 52ab 30bd b360 c6bd 6691 833d 31d3 6ebd
000000d0: a854 e9bc b027 853d 4bb0 8cba 0077 ba3d
000000e0: a95b b9bc 08e4 a6bd e93f e13c b39d 3c3e
000000f0: cf1e a4bd 501a f7bc 6940 91bb 6b79 ca3d
00000100: 8466 db3c da14 b13d 1198 04bd a0af 88bd
00000110: bde5 e8bd 3842 93bd 1c57 f0bd 1f01 d33d
00000120: 1640 b3bd a03f 323e f20c 763c cf8b 753d
00000130: b659 383e 0948 b2bc d8af 4abe 14f2 4f3d
00000140: fed1 883d d1e8 d13c 308e 9a3d 5025 8b3c
00000150: bf84 363b 5d4e 6abd 255c 043e 2a13 65bc
00000160: 109c 04bd 63cf 86bd ec16 bebd fd02 623b
00000170: c47f 933d 3f1d b43d 8651 a5bd 872d 9a3d
00000180: 5ff7 563d ff7c 0abd df17 b93d 5aad 643c
00000190: 5584 d8bd 1874 903d 5ac9 82bb 51b3 f8bd
000001a0: f8cd 923d a701 973c 1195 30bd cd0f dcbd
000001b0: ecc5 0dbd cb76 373e c77a a23d 492d 84bc
000001c0: f727 023c fb26 c1bd 0f7e 38be 8186 063d
000001d0: 0901 72bd bb76 0bbd 0a8b a33d acc8 63bd
000001e0: f542 eb3d db10 78bd b25e 0c3e c129 763d
000001f0: 3b32 a8bd b2fc e7bc b9d8 363e 7184 8c3e
00000200: c013 5b3e 0d23 acbd 6972 ccbd 9ebb f03d
00000210: b61f b9bd fefa 88be d226 38be 7ae5 803d
00000220: 33c7 a03d 0b7b dfbc 6c79 3abc a09e 523c
00000230: 71ca c7bd 4c99 c1b9 c163 063e 10fe 83bd
00000240: 3526 a43d c21c 103e cc68 6a3c 2246 2d3d
00000250: 7456 6cbd 06d4 89bd 538e 95bd c496 8d3d
00000260: 6958 b43d 73af c8bd 9266 87bd 864d 1ebd
00000270: 7173 e43d ea68 75bc 51ea debd a1f9 113d
00000280: ee3e 81bc 5fac c5bd fe9d 4dbc b62f 0f3e
00000290: 1392 a43d 4961 a63d 6546 03be 1f7a 3f3d
000002a0: 95f9 a1bd 0ed6 a53d b957 95bc 78cc c53d
000002b0: 21b2 073c 5d4f b9bd baba bcbc 7c13 0bbe
000002c0: bebb 4cbd 8c6d a6bb 7147 293d 1e69 14bd
000002d0: 9734 203e e7b1 663d a185 2e3d 144b 5c3d
000002e0: e6b6 babc 196e cebd c694 09be 1260 10bd
000002f0: 4e99 15be fefc afbd 1604 29bd 5bb6 78bd
00000300: b9a1 693d 8be0 e8bd 8a8e 9bbd 566a d4bd
00000310: 3ce3 213d d792 083e aea2 cc3d 8ac4 253d
00000320: f12b 943c d296 903c 48fc bfbd 8120 a7bd
00000330: 1574 c93d ae7f 4e3d 6513 7ebd 5d03 e0bd
00000340: eca9 ccbb 3877 01be c5f0 85bd 1941 50bd
00000350: 4610 3e3c 6044 6f3d 7f1a 043d 63ae d4bd
00000360: 5c85 ebbd 1b58 173b 2c25 d43d a5a3 78bd
00000370: d8ca 743d e1df d1bd 9394 4dbc 22eb 09bd
00000380: 7c67 aebd 9b22 603d 2ec5 0d3e 948e 1ebd
00000390: 59db bd3c 4e35 f6bd 6a2c debd 1244 b3bd
000003a0: 69cb 31bd 9cc0 f93c 8bf1 763e a0dd 8f3e
000003b0: 1a91 1b3e 7273 21be 2e28 4bbe b44c 3a3d
000003c0: a4a3 b5bd 88dc dabc 5d3d 2cbd b2ea d7bc
000003d0: 3a56 cf3d 2550 1ebd bebb 593d c2f1 003e
000003e0: 1651 5b3d a942 483d a5fd 25bd 7b52 3ebd
000003f0: 877b c53b 6dd7 b63d 26be d43c 68e5 eebd

conv2.bias f4 [16]
0.0017362927 0.09677872 -0.09041597 -0.09192883 -0.09194843 -0.056575175 0.10574884 -0.041237887
0.08617058 0.081220426 0.05921177 0.030436875 0.12482255 -0.039153412 0.06871361 -0.020489324
00000000: 5194 e33a ec33 c63d 022c b9bd 2f45 bcbd
00000010: 754f bcbd 5fbb 67bd d992 d83d 0fe9 28bd
00000020: 337a b03d e556 a63d 0a88 723d c156 f93c
00000030: f7a2 ff3d 545f 20bd b9b9 8c3d 3ad9 a7bc

fc1.weight f4 [120, 400]
0.011264295 0.012869115 -0.0145156495 0.04361829 -0.034318056 -0.022989985 -0.00020497623 -0.014532132
0.028887501 -0.035387956 -0.013716377 -0.026979202 -0.021709852 0.006464558 -0.024619602 0.004801362
0.07943945 0.08396434 0.021220692 0.033698037 0.018566247 0.009046275 0.044872068 -0.04130412
-0.05783823 0.0012452195 0.04972747 0.018125279 0.047332715 -0.021041064 0.02313504 0.0062784664
-0.01160944 0.033324737 0.0237594 0.030752432 -0.02058463 -0.017475566 0.017014062 -0.038936812
0.030132769 0.020613858 -0.030964166 0.007644405 -0.030931896 0.0016888216 0.02106946 -0.030429455
-0.029090967 0.022926692 0.01848297 0.04104024 0.0056099654 -0.03268568 -0.005860114 -0.032214366
-0.0496991 0.040857244 0.0365377 0.043966826 -0.02528747 0.013532774 0.027623678 0.0046300623
0.052231222 0.03240076 -0.07309541 0.017105622 -0.019959731 0.019340286 -0.045948 0.027864572
-0.0013766711 0.00813796 0.041891344 0.01682904 -0.035615932 0.027404763 -0.009187076 0.019760232
-0.026694888 -0.025192259 0.005624342 0.042442255 -0.04392348 0.0059550065 0.0002824106 0.04243024
0.017743818 0.029697476 -0.034953915 0.03566744 0.024505801 -0.019584067 0.037706826 -0.019747403
-0.012416373 0.0063650617 -0.009470366 0.022989413 -0.045849275 -0.0041963053 0.011413243 0.0492807
0.04077874 0.010924967 -0.04830122 -0.03611732 0.027269028 -0.028138142 -0.047428697 0.0030744437
-0.016747031 0.039956827 0.014470772 0.044332184 0.0060643977 0.00681538 -0.017177124 0.008284082
0.037074976 -0.061550584 0.017673822 0.011830301 0.034426138 0.040740058 0.04939813 -0.017330889
0.008186606 -0.04488117 -0.048916575 0.00789794 0.05237949 0.047447715 -0.006104528 -0.006728793
0.010746845 0.010449188 -0.05440593 -0.027905583 0.010715196 0.0028251468 0.020020923 0.030452754
0.0437316 0.03707436 0.008273276 -0.027307166 -0.02844581 0.020256761 0.00043106402 0.026279315
-0.04485789 -0.0091490485 -0.0075952155 -0.013521938 -0.015651101 -0.026291562 0.020043941 -0.033832822
-0.02607581 0.017328983 -0.0153277675 -0.0479963 0.027527504 -0.04527459 0.04028066 -0.014579829
-0.020989405 0.03923793 0.012346452 0.022634298 -0.0016289388 -0.03127002 0.03618788 0.031594146
-0.0063267285 0.010452754 -0.0050765635 -0.04852914 -0.022327544 0.018596528 0.040901 0.03204785
-0.0025118112 0.008041779 -0.014925973 -0.062558345 -0.009274793 0.0052139387 -0.02480455 -0.04873271
0.022144271 -0.013374677 0.019323837 -0.026246684 -0.0059004785 0.07667518 0.018328086 -0.008655694
-0.019583993 0.030313233 0.0032699944 0.04163327 0.012919877 0.0011325415 0.019043617 0.053708557
-0.05137545 0.030802097 -0.032838393 0.010550643 -0.02728814 -0.028704366 0.052732024 0.017983269
-0.023914095 0.0032180762 -0.008522712 -0.042672895 0.05369653 0.04683914 -0.009031846 -0.01337055
0.010275933 -0.008777551 0.03880699 0.027482433 0.031404227 -0.047281668 0.043173622 0.018518094
0.026532458 -0.0247396 -0.004822803 -0.031062296 0.016016748 -0.03756097 -0.030451631 -0.049065944
0.042247504 0.029107554 -0.03703033 -0.04285953 0.0069646486 0.016678995 -0.038414992 -0.041531596
0.04029966 -0.0015538553 0.021235712 0.016959824 -0.016700601 0.04319824 -0.019264335 0.02396801
00000000: e18d 383c fbd8 523c 0cd3 6dbc 18a9 323d
00000010: 1791 0cbd 7e55 bcbc e3ee 56b9 2e18 6ebc
00000020: 7ba5 ec3c f6f2 10bd a8ba 60bc 7d03 ddbc
00000030: dcd8 b1bc a5d4 d33b 0caf c9bc be54 9d3b
00000040: 26b1 a23d 7ff5 ab3d 04d7 ad3c f406 0a3d
00000050: 3e18 983c d436 143c c6cb 373d 822e 29bd
00000060: c8e7 6cbd a236 a33a 08af 4b3d 777b 943c
00000070: f3df 413d 4f5e acbc b285 bd3c 98bb cd3b
00000080: 8535 3ebc 857f 083d 13a3 c23c 86ec fb3c
00000090: 19a1 a8bc eb28 8fbc 1361 8b3c 357c 1fbd
000000a0: ffd8 f63c 65de a83c 90a8 fdbc eb7d fa3b
000000b0: e364 fdbc 735b dd3a dc99 ac3c 3147 f9bc
000000c0: 2e50 eebc c2d0 bb3c 9969 973c d019 283d
000000d0: cdd3 b73b 6be1 05bd 3306 c0bb 36f3 03bd
000000e0: 4991 4bbd ed59 273d 8ea8 153d 8f16 343d
000000f0: ab27 cfbc 91b8 5d3c 0d4b e23c c7b7 973b
00000100: 68f0 553d a9b6 043d 0cb3 95bd 1721 8c3c
00000110: 9782 a3bc 856f 9e3c f833 3cbd 3e44 e43c
00000120: 6b71 b4ba 1455 053c 4296 2b3d 0edd 893c
00000130: 03e2 11bd f47f e03c 6485 16bc 36e0 a13c
00000140: 3daf dabc ff5f cebc 664c b83b eed7 2d3d
00000150: 1be9 33bd 3722 c33b 8210 9439 55cb 2d3d
00000160: 7c5b 913c 1f48 f33c d62b 0fbd 0618 123d
00000170: 64c0 c83c c46e a0bc 7972 1a3d 4ec5 a1bc
00000180: 0b6e 4bbc 0292 d03b 9829 1bbc 4b54 bc3c
00000190: 73cc 3bbd 2981 89bb 9cfe 3a3c 8fda 493d
000001a0: 9c07 273d a2fe 323c 80d7 45bd c1ef 13bd
000001b0: 4c63 df3c f681 e6bc 9844 42bd 9b7c 493b
000001c0: 1231 89bc c5a9 233d d116 6d3c aa95 353d
000001d0: dbb7 c63b 8d53 df3b 0ab7 8cbc f5b9 073c
000001e0: eedb 173d 771c 7cbd b1c8 903c e1d3 413c
000001f0: 6c02 0d3d 0cdf 263d b255 4a3d 82f9 8dbc
00000200: 1d21 063c 51d5 37bd bf5c 48bd 5d66 013c
00000210: e08b 563d 8958 423d 7e08 c8bb 357d dcbb
00000220: 8913 303c 1233 2b3c c1d8 5ebd 409a e4bc
00000230: ca8e 2f3c 1926 393b eb02 a43c 0e78 f93c
00000240: e81f 333d 49db 173d a28c 073c 47b3 dfbc
00000250: 3007 e9bc 82f1 a53c 6f00 e239 b847 d73c
00000260: e8bc 37bd e4e5 15bc 49e1 f8bb 1e8b 5dbc
00000270: bd36 80bc 6761 d7bc 3133 a43c 4994 0abd
00000280: f09c d5bc 83f5 8d3c 5121 7bbc c597 44bd
00000290: 5c81 e13c d971 39bd 55fd 243d 3ce0 6ebc
000002a0: f9f1 abbc f4b7 203d c648 4a3c 906b b93c
000002b0: 1e82 d5ba fe14 00bd be39 143d dd68 013d
000002c0: 7250 cfbb 0742 2b3c 4d59 a6bb 7ec6 46bd
000002d0: 41e8 b6bc bf57 983c cf87 273d 9b44 033d
000002e0: 339d 24bb aac1 033c 118c 74bc 971e 80bd
000002f0: 4df5 17bc b0d9 aa3b e932 cbbc f39b 47bd
00000300: e767 b53c 7621 5bbc 064d 9e3c 4903 d7bc
00000310: cd58 c1bb e007 9d3d c824 963c 9dd0 0dbc
00000320: 9c6e a0bc 7553 f83c 674d 563b a687 2a3d
00000330: e4ad 533c c971 943a 5c01 9c3c 81fd 5b3d
00000340: 106f 52bd ae54 fc3c 8d81 06bd 9bdc 2c3c
00000350: 618b dfbc 6b25 ebbc 89fd 573d a651 933c
00000360: 7ee7 c3bc 5ce6 523b d8a2 0bbc c6c9 2ebd
00000370: e5f0 5b3d 66da 3f3d 4ffa 13bc 2710 5bbc
00000380: 635c 283c b8cf 0fbc 14f4 1e3d d722 e13c
00000390: b8a1 003d 6caa 41bd d3d6 303d 42b3 973c
000003a0: 995a d93c b4aa cabc 9b08 9ebb 5b76 febc
000003b0: 8e35 833c 88d9 19bd b375 f9bc 5ff9 48bd
000003c0: b80b 2d3d f772 ee3c 1ead 17bd 798d 2fbd
000003d0: b537 e43b 63a2 883c 0a59 1dbd 091d 2abd
000003e0: 4211 253d bbaa cbba 84f6 ad3c 54ef 8a3c
000003f0: b3cf 88bc a3f0 303d 3dd0 9dbc 8f58 c43c

fc1.bias f4 [120]
0.047814354 0.0016293217 -0.031257737 0.045318298 0.0040652985 0.047563635 0.026238661 0.01676617
0.027323551 -0.0379898 -0.021781866 0.028455164 -0.015969122 -0.0025441218 0.028688906 0.028487615
-0.04089947 0.05346523 -0.008073494 -0.03149894 0.034538243 -0.008182676 -0.041362952 0.009627442
0.008862229 -0.03127712 -0.02680683 -0.030743232 0.02973713 0.0089679 -0.021366429 0.041412894
0.03968935 -0.041873172 0.03266492 0.05020504 0.051149655 0.025374668 0.025457522 0.025426406
0.018662246 0.00759033 0.034318544 -0.016674317 -0.007659873 0.013896834 0.028452497 0.022269633
-0.04106894 -0.039245654 -0.0037174448 0.053065095 -0.047225684 0.008520354 0.012929382 0.02383837
0.03857257 -0.031148525 0.036048684 -0.026595624 0.015160329 -0.042305507 0.0064692455 -0.035489857
-0.02137718 0.027074926 0.04729254 0.026955804 -0.025290959 0.003147499 0.029540924 0.03887624
-0.0015172639 0.021836663 -0.027621165 0.011372914 -0.03604817 -0.01993792 0.048335854 -0.007754344
-0.018398546 -0.017177653 -0.041209802 -0.039963495 -0.008942896 0.041308723 0.04574263 -0.041612476
0.00928869 0.027133456 -0.034464717 -0.043120004 -0.004359643 0.04314364 0.0008263214 0.042274337
-0.034816965 0.004133362 0.023024669 -0.008767299 0.044363663 -0.011611033 0.026193332 -0.0006717059
-0.014282493 0.022770764 0.033386912 0.0011348998 -0.014496574 -0.024609536 0.015845042 -0.028947212
0.04647005 0.029558532 -0.007838047 -0.007777369 0.017383717 -0.019676358 -0.0036434233 -0.021704141
00000000: fcd8 433d f78e d53a 1d08 00bd ae9f 393d
00000010: 3236 853b 16d2 423d 76f2 d63c 3559 893c
00000020: a4d5 df3c 319b 1bbd e26f b2bc ce1a e93c
00000030: add1 82bc 48bb 26bb ff04 eb3c dc5e e93c
00000040: 3486 27bd 5bfe 5a3d b046 04bc 0805 01bd
00000050: f977 0d3d a110 06bc 336c 29bd 6bbc 1d3c
00000060: e232 113c 701c 00bd ff99 dbbc 3bd9 fbbc
00000070: 489b f33c 19ee 123c a608 afbc 91a0 293d
00000080: 4d91 223d 3483 2bbd a7cb 053d cda3 4d3d
00000090: 4d82 513d 89de cf3c 4b8c d03c 0a4b d03c
000000a0: 91e1 983c 4eb8 f83b 9a91 0c3d 9498 88bc
000000b0: acff fabb 8caf 633c 3615 e93c ce6e b63c
000000c0: e837 28bd 0dc0 20bd 60a0 73bb c95a 593d
000000d0: b86f 41bd f498 0b3c c2d5 533c af48 c33c
000000e0: 45fe 1d3d 312b ffbc c9a7 133d 11df d9bc
000000f0: 0763 783c 8a48 2dbd f7fb d33b d05d 11bd
00000100: 321f afbc 3ccc dd3c d3b5 413d 6bd2 dc3c
00000110: fc2e cfbc 4546 4e3b cfff f13c b13c 1f3d
00000120: eede c6ba cde2 b23c c845 e2bc 7555 3a3c
00000130: 3fa7 13bd d954 a3bc d1fb 453d 2718 febb
00000140: 8cb8 96bc 26b8 8cbc 9ccb 28bd c3b0 23bd
00000150: 3985 12bc 5633 293d a05c 3b3d d871 2abd
00000160: 972f 183c fb46 de3c e02a 0dbd 9a9e 30bd
00000170: 56db 8ebb 63b7 303d 7e9d 583a db27 2d3d
00000180: 3c9c 0ebd 2771 873b 3b9e bc3c b8a4 0fbc
00000190: acb6 353d 343c 3ebc 6693 d63c 6b15 30ba
000001a0: 1e01 6abc c189 ba3c b7c0 083d ebc0 943a
000001b0: 0a83 6dbc f099 c9bc 76cd 813c b422 edbc
000001c0: 6157 3e3d bc24 f23c 276b 00bc 4dd9 febb
000001d0: 4c68 8e3c 5030 a1bc 80c6 6ebb e2cc b1bc

fc2.weight f4 [84, 120]
0.01132076 0.04927176 0.119295746 -0.007786614 0.07928953 -0.07916502 0.017832214 -0.08934103
0.021341043 -0.09579552 -0.06806668 0.07703677 0.0336079 0.077902205 0.053121902 0.103883274
0.045183524 -0.044258494 -0.082095616 0.02224765 -0.032218367 -0.010456352 0.014708559 -0.022140421
0.036302064 -0.060414612 0.000119301214 0.046503983 0.046764966 0.07444436 -0.0140349865 -0.10886645
0.08781799 0.089756146 0.011297539 -0.07603515 0.021067485 0.023817327 0.06764906 -0.048090596
-0.073106214 0.032166626 -0.065982156 0.041838046 0.027849086 0.0721394 -0.044672955 -0.07535964
-0.023003325 -0.036883544 -0.016528657 0.032243222 -0.07267075 0.036523912 0.09948523 -0.0803386
-0.011826653 0.015422305 0.024347652 0.028779453 -0.028036876 0.08768697 0.06638677 -0.066345274
0.123542264 0.069821216 -0.07796075 -0.035432342 -0.0039727297 0.06877547 -0.033769123 0.08924239
0.112730145 -0.0014607399 -0.10507088 0.0009401364 -0.09236496 -0.0652576 0.020886155 -0.061855614
8.741402e-05 -0.02704538 -0.091908336 0.027174165 -0.013624894 -0.040832706 0.03200948 -0.023899112
-0.017211627 0.070403025 0.0907137 -0.03269982 0.08110373 0.07320175 0.070425555 0.028996963
0.077307865 -0.037563864 -0.043619208 0.035925686 0.06248829 0.0794255 -0.03289695 0.0996288
-0.033362854 -0.035145164 -0.055380113 -0.07466873 -0.0671964 -0.032739285 -0.05838127 -0.049677387
-0.05809266 0.09114538 0.026224462 -0.022092052 -0.029872585 0.03585247 0.04769105 -0.0054665455
0.03472815 -0.033044256 -0.05162347 0.06859117 -0.05460349 -0.022061042 -0.08938105 0.03322439
0.013268962 0.0027005654 -0.02989561 -0.0061926832 0.066500865 -0.0065407185 0.003927301 -0.008797686
-0.0022661607 -0.032595698 0.042745806 -0.006875229 0.067366526 -0.06308467 -0.0147582125 -0.0737472
0.033169344 -0.08641293 0.06155413 -0.05644955 0.07615233 -0.010004277 -0.08945627 -0.090406716
-0.022004353 0.09150769 0.00772102 0.025763199 -0.04565446 -0.008771673 0.056563616 0.053218175
-0.013229075 -0.060914937 0.0051122517 -0.04358871 0.02168245 -0.029676117 0.04948919 0.045173217
-0.030315962 0.038263485 0.063920826 0.08760275 0.070973836 0.09640414 0.013500607 -0.015658297
-0.078879386 -0.06513057 0.06025276 -0.031593733 -0.069106385 -0.07391054 0.03240128 0.058274683
-0.026554264 -0.0020722311 0.089288086 -0.0031650683 -0.049294554 -0.032862782 0.07171381 -0.022627229
-0.041399896 0.016153064 0.09559753 -0.06824552 -0.042299032 0.033596616 0.0026406436 -0.08837254
-0.044258192 0.009253878 -0.0004815906 0.0759167 -0.038840033 0.012680249 -0.083800994 0.023155222
0.09127022 0.07009494 -0.07032481 0.049267516 -0.034987137 -0.052436072 -0.08058651 -0.06463182
0.0855455 -0.08689816 -0.010987607 -0.041611835 -0.07686737 -0.05426946 -0.07104798 -0.074032985
-0.015574314 0.029037654 -0.0075335554 0.02324549 0.0427182 -0.00018228995 0.02767793 -0.005431847
-0.027608348 0.057831563 0.003241385 -0.061868925 -0.06126839 -0.054199643 0.08827813 -0.03363903
-0.047452234 -0.0073191375 0.068105765 0.07834492 0.0064335973 0.094471075 0.036074623 0.13550137
0.0805599 0.0573554 -0.04193265 0.12078003 0.06324083 0.057935577 0.030765956 -0.014782965
00000000: b57a 393c 2fd1 493d 5451 f43d da26 ffbb
00000010: 8d62 a23d 4521 a2bd dd14 923c 6ef8 b6bd
00000020: 69d3 ae3c 7130 c4bd 8b66 8bbd 74c5 9d3d
00000030: 70a8 093d 318b 9f3d 5a96 593d c1c0 d43d
00000040: 5c12 393d 6548 35bd bf21 a8bd b440 b63c
00000050: 68f7 03bd 1e51 2bbc 2bfc 703c d45f b5bc
00000060: 79b1 143d 5075 77bd 5a31 fa38 f67a 3e3d
00000070: 9f8c 3f3d 4976 983d 00f3 65bc 60f5 debd
00000080: ebd9 b33d 12d2 b73d 5019 393c 51b8 9bbd
00000090: b895 ac3c 8e1c c33c 978b 8a3d a5fa 44bd
000000a0: b6b8 95bd 27c1 033d a721 87bd 5f5e 2b3d
000000b0: c423 e43c d2bd 933d fdfa 36bd 2856 9abd
000000c0: 7871 bcbc 3313 17bd 1b67 87bc 7811 043d
000000d0: 67d4 94bd 199a 153d eabe cb3d 9088 a4bd
000000e0: 94c4 41bc d6ad 7c3c ba74 c73c e3c2 eb3c
000000f0: 97ad e5bc 3a95 b33d c9f5 873d 08e0 87bd
00000100: ba03 fd3d 6dfe 8e3d e3a9 9fbd 8121 11bd
00000110: ac2d 82bb 27da 8c3d 7e51 0abd b7c4 b63d
00000120: 10df e63d 4c76 bfba 672f d7bd 7c73 763a
00000130: d729 bdbd c7a5 85bd 7119 ab3c 505c 7dbd
00000140: 0b52 b738 468e ddbc 703a bcbd 5b9c de3c
00000150: f33a 5fbc 3240 27bd 5f1c 033d 12c8 c3bc
00000160: 66ff 8cbc 762f 903d 1bc8 b93d 3ff0 05bd
00000170: b619 a63d cdea 953d 463b 903d 0a8b ed3c
00000180: 9653 9e3d 91dc 19bd 0eaa 32bd d026 133d
00000190: b9f3 7f3d d6a9 a23d f4be 06bd 2f0a cc3d
000001a0: 7da7 08bd 60f4 0fbd 42d6 62bd ebeb 98bd
000001b0: 449e 89bd a119 06bd 3321 6fbd 847a 4bbd
000001c0: 92f2 6dbd 6eaa ba3d afd4 d63c 64fa b4bc
000001d0: 5ab7 f4bc 0ada 123d b157 433d b520 b3bb
000001e0: 1b3f 0e3d 6a59 07bd 2273 53bd 8779 8c3d
000001f0: e9a7 5fbd 5cb9 b4bc 690d b7bd 4c16 083d
00000200: 0f66 593c f8fb 303b a3e7 f4bc feeb cabb
00000210: 9b31 883d 8653 d6bb 97b0 803b 2b24 10bc
00000220: de83 14bb 1183 05bd 3a16 2f3d 9a49 e1bb
00000230: 76f7 893d 8932 81bd 6ecc 71bc c608 97bd
00000240: 94dc 073d 43f9 b0bd 2f20 7c3d a537 67bd
00000250: c1f5 9b3d fbe8 23bc d934 b7bd 2827 b9bd
00000260: 7942 b4bc 6268 bb3d 9c00 fd3b 580d d33c
00000270: 2c00 3bbd 10b7 0fbc 40af 673d 4dfb 593d
00000280: c3be 58bc f181 79bd ad84 a73b 138a 32bd
00000290: 659f b13c 541b f3bc 2db5 4a3d 8d07 393d
000002a0: 2e59 f8bc 2cba 1c3d ece8 823d 1269 b33d
000002b0: bb5a 913d 896f c53d a631 5d3c d445 80bc
000002c0: 848b a1bd 2d63 85bd 99cb 763d 6e68 01bd
000002d0: a687 8dbd 695e 97bd 34b7 043d 6fb1 6e3d
000002e0: 5488 d9bc 45ce 07bb acdc b63d 096d 4fbb
000002f0: 16e9 49bd 209b 06bd b1de 923d bd5c b9bc
00000300: f092 29bd 6e53 843c a3c8 c33d 4fc4 8bbd
00000310: c041 2dbd 9b9c 093d a60e 2d3b aafc b4bd
00000320: 1448 35bd 949d 173c ff7d fcb9 377a 9b3d
00000330: ba16 1fbd d2c0 4f3c db9f abbd 05b0 bd3c
00000340: e2eb ba3d f08d 8f3d 7406 90bd bccc 493d
00000350: ac4e 0fbd 35c7 56bd 8a0a a5bd b05d 84bd
00000360: 7b32 af3d aaf7 b1bd 5d05 34bc 2c71 2abd
00000370: a46c 9dbd a749 5ebd 9a81 91bd 9b9e 97bd
00000380: 682b 7fbc 60e0 ed3c 0bdc f6bb 536d be3c
00000390: 47f9 2e3d 1625 3fb9 d4bc e23c a3fd b1bb
000003a0: e72a e2bc cae0 6c3d 6b6d 543b 456a 7dbd
000003b0: 90f4 7abd 7200 5ebd 2acb b43d 14c9 09bd
000003c0: 465d 42bd 60d5 efbb 097b 8b3d 4d73 a03d
000003d0: edd0 d23b 0d7a c13d fcc2 133d dfc0 0a3e
000003e0: 97fc a43d 7fed 6a3d 92c1 2bbd 855b f73d
000003f0: 6984 813d db4d 6d3d e308 fc3c 4034 72bc

fc2.bias f4 [84]
-0.011704224 0.06963136 0.004238273 0.03844601 0.015696824 0.06257227 0.014760653 0.062399354
-0.0875932 -0.03779001 0.052638724 0.037188653 0.039347246 0.0029473181 0.0260866 -0.08856063
-0.036902443 0.013476389 0.053082827 0.054120332 -0.0095608095 0.035530202 -0.054188177 -0.008927695
-0.012238213 -0.037911896 -0.0035790815 0.1021672 0.10099958 0.026189962 0.010053398 -0.011656218
-0.030017916 0.0425668 -0.055511195 0.0037943057 -0.024590988 -0.02310875 -0.03590261 0.07692461
0.017952304 -0.026587877 0.03406147 -0.075359546 0.04892829 -0.021520283 -0.057864245 -0.011367603
0.022127656 -0.014534708 -0.028834129 0.045648687 -0.013016132 0.04152535 -0.06551846 -0.08134015
-0.03796358 0.077729054 0.04925138 0.05081092 -0.070623696 0.04774977 0.030511739 -0.050660606
0.09332964 0.00071146555 0.0056829685 0.092013925 0.057782248 0.06931692 -0.07770676 -0.06857263
-0.08357324 -0.086874016 0.020610908 0.035195097 0.0030810672 0.04260849 0.021418536 -0.007986875
0.0070051113 0.03677677 -0.06440575 0.010613025
00000000: 13c3 3fbc e39a 8e3d 36e1 8a3b 9079 1d3d
00000010: a096 803c e425 803d aad6 713c 7796 7f3d
00000020: 1064 b3bd b3c9 1abd b49b 573d 2153 183d
00000030: 942a 213d cb27 413b 91b3 d53c 475f b5bd
00000040: 0427 17bd 13cc 5c3c 616d 593d 48ad 5d3d
00000050: f1a4 1cbc 1e88 113d 6cf4 5dbd 7845 12bc
00000060: c982 48bc 8149 1bbd 068f 6abb 093d d13d
00000070: ded8 ce3d 558c d63c 02b7 243c b9f9 3ebc
00000080: 22e8 f5bc 865a 2e3d b55f 63bd e3a9 783b
00000090: 0a73 c9bc 904e bdbc 9d0e 13bd a68a 9d3d
000000a0: b610 933c d2ce d9bc 0a84 0b3d 1b56 9abd
000000b0: 0869 483d 4e4b b0bc 0f03 6dbd 2f3f 3abc
000000c0: 0f45 b53c fc22 6ebc 8d35 ecbc 1efa 3a3d
000000d0: 9d41 55bc 7c16 2a3d 8b2e 86bd aa95 a6bd
000000e0: b37f 1bbd 6930 9f3d d1bb 493d 1c1f 503d
000000f0: 28a3 90bd 4395 433d c1f3 f93c 7f81 4fbd
00000100: 9c23 bf3d a581 3a3a 3238 ba3b cc71 bc3d
00000110: 14ad 6c3d 08f6 8d3d b924 9fbd cf6f 8cbd
00000120: 7228 abbd 01eb b1bd 35d8 a83c bc28 103d
00000130: bbeb 493b 3d86 2e3d ed75 af3c 62db 02bc
00000140: 228b e53b 3da3 163d 29e7 83bd 41e2 2d3c

fc3.weight f4 [10, 84]
-0.027020995 0.09738348 -0.27314574 0.08910299 -0.004826912 -0.10503141 0.15654095 -0.1138612
0.022924772 -0.121870525 -0.012824569 0.06437908 0.017223908 0.061399564 -0.12491983 0.0020449457
-0.011710368 -0.15553683 0.046758004 -0.017093278 0.0050212154 -0.12787084 -0.08987341 0.012340247
0.02969563 0.06927074 0.022051323 -0.10790806 -0.14209627 -0.2192926 0.047490805 -0.14607212
-0.073748 0.10604216 0.0038223627 -0.07746815 -0.023971276 -0.06800231 -0.10512312 -0.039990336
-0.053972524 -0.07839846 -0.010538489 -0.107722454 -0.11605362 -0.11602837 0.13522491 0.16831617
0.052538086 0.039938442 0.012201836 -0.030926706 -0.10215592 0.089910895 -0.05217513 0.07728497
-0.04474104 0.040950358 0.08251403 0.04137263 0.057996362 -0.06322292 0.16025996 0.12748566
-0.007928565 0.030831173 0.060216594 0.10943636 -0.10362789 -0.008743633 -0.114048064 -0.090421975
0.15139298 0.1526032 0.10359673 0.14170188 0.09997438 0.07225902 0.1771208 -0.017893683
0.14834858 0.05795725 0.041571055 0.124105416 0.08171588 -0.034146257 0.13971312 -0.007841343
-0.0976225 -0.06678644 0.06749539 0.06543568 0.12789427 0.134859 0.007436909 -0.1279834
-0.16349204 -0.029985951 0.13529722 0.064551346 0.16770233 0.0075960527 0.06699265 0.093734615
0.1032412 0.12274038 0.062554955 0.009447508 -0.087372616 -0.06598606 -0.13580407 0.033120763
-0.06056866 -0.101976715 -0.12878989 0.00032036123 -0.1616953 -0.07399167 -0.07426298 -0.10797004
0.015302151 0.052978788 0.08574053 0.090787925 -0.06512572 0.08252777 -0.062706 -0.14958033
-0.10394127 0.21899383 0.005202022 0.032716636 0.16335429 -0.07942518 -0.22932161 0.05706813
0.024109641 -0.074811384 -0.046167694 0.080662444 -0.06848724 0.089552656 0.018304445 -0.052392337
-0.040022183 -0.1456708 0.047413923 -0.024634372 0.10660845 0.15096843 -0.06012139 0.05021725
0.038659412 -0.14414564 -0.056728777 -0.08174305 -0.113048606 -0.07758004 -0.010797453 0.04831248
-0.25919905 0.040857885 -0.11479668 -0.010467624 0.024495142 0.01046379 0.21574505 0.083760075
0.18039288 0.078285754 0.08381511 0.18761323 0.066261105 0.041314643 0.023727452 -0.06926373
-0.00089094014 0.07750549 -0.009597195 0.036526386 0.05563902 -0.09238156 0.11270543 0.06547833
0.023054004 0.0054825842 0.09443866 0.052559517 -0.07191343 -0.2228367 -0.08415134 -0.1027219
0.07542745 0.10223868 0.21823987 -0.089930214 0.115266785 -0.10969716 -0.10596327 -0.16626129
-0.08811567 -0.085682705 0.05873638 -0.14244549 -0.06223349 0.050520487 0.019167807 -0.009417404
0.15014786 -0.12959228 -0.0047686924 -0.049226575 0.17328744 0.08090414 0.10332155 0.005654606
0.20641162 -0.07978788 0.12766321 -0.042925235 -0.07948651 0.08007765 -0.12807381 0.13180709
-0.06548462 -0.004113834 0.061869808 -0.014193909 -0.09964034 0.058621682 -0.21079856 -0.05139416
0.027634466 0.05108778 0.041498568 -0.05650792 -0.0071218745 0.024079377 -0.031438593 0.010684182
0.049179792 0.103255846 0.046255752 0.104588166 -0.13685668 -0.069869556 0.1300249 -0.1285298
-0.060289644 -0.13629767 0.054889012 0.018154705 -0.05947146 0.09727399 0.11928964 0.13080972
00000000: 225b ddbc fd70 c73d c2d9 8bbe a17b b63d
00000010: 132b 9ebb b51a d7bd 454c 203e 1030 e9bd
00000020: bbcc bb3c 4197 f9bd 241e 52bc 2ed9 833d
00000030: 2719 8d3c 1c7e 7b3d f8d5 ffbd 7f04 063b
00000040: d8dc 3fbc 0c45 1fbe 5285 3f3d 3407 8cbc
00000050: 0289 a43b 93f0 02be 8d0f b8bd bf2e 4a3c
00000060: 4044 f33c d1dd 8d3d faa4 b43c e7fe dcbd
00000070: af81 11be 3d8e 60be b885 423d ee93 15be
00000080: 3109 97bd a22c d93d 9b80 7a3b 9fa7 9ebd
00000090: 695f c4bc cc44 8bbd ca4a d7bd e8cc 23bd
000000a0: 4b12 5dbd 5f8f a0bd a0a9 2cbc 979d dcbd
000000b0: 85ad edbd 48a0 edbd 6678 0a3e 135b 2c3e
000000c0: 2d32 573d 7e96 233d 36ea 473c 015a fdbc
000000d0: 1f37 d1bd 3423 b83d 97b5 55bd 9547 9e3d
000000e0: 6142 37bd 90bb 273d 1efd a83d 5976 293d
000000f0: 988d 6d3d 057b 81bd 301b 243e 9a8b 023e
00000100: d0e6 01bc a891 fc3c ada5 763d 2c20 e03d
00000110: dc3a d4bd 7441 0fbc 0892 e9bd 282f b9bd
00000120: c306 1b3e 0344 1c3e 862a d43d 4c1a 113e
00000130: 5ebf cc3d 89fc 933d 285f 353e c695 92bc
00000140: b1e8 173e 9564 6d3d 6946 2a3d fb2a fe3d
00000150: a85a a73d f2dc 0bbd f510 0f3e fa78 00bc
00000160: 4eee c7bd 54c7 88bd 063b 8a3d 2403 863d
00000170: b7f6 023e 7a18 0a3e 50b1 f33b 150e 03be
00000180: 756a 27be 19a5 f5bc 5b8b 0a3e 7f33 843d
00000190: 29ba 2b3e 4fe8 f83b 7133 893d eff7 bf3d
000001a0: 1f70 d33d 4f5f fb3d d01c 803d b8c9 1a3c
000001b0: 6af0 b2bd b323 87bd 3910 0bbe a3a9 073d
000001c0: d816 78bd 2bd9 d0bd 7fe1 03be 28f6 a739
000001d0: 7493 25be f288 97bd 3017 98bd 651f ddbd
000001e0: e0b5 7a3c 4900 593d bb98 af3d 05ef b93d
000001f0: a260 85bd 5204 a93d 016c 80bd 962b 19be
00000200: 29df d4bd eb3f 603e b975 aa3b e101 063d
00000210: 5946 273e aba9 a2bd 49d3 6abe 45c0 693d
00000220: 9581 c53c b636 99bd 561a 3dbd 5a32 a53d
00000230: 0a43 8cbd 6267 b73d 34f3 953c 5999 56bd
00000240: 4dee 23bd ba2a 15be 1a35 423d 06ce c9bc
00000250: 8855 da3d 7897 1a3e d941 76bd 9ab0 4d3d
00000260: 5559 1e3d ea9a 13be 6f5c 68bd e668 a7bd
00000270: 0786 e7bd 49e2 9ebd cde7 30bc 4fe3 453d
00000280: bdb5 84be 995a 273d 861a ebbd 6680 2bbc
00000290: 09aa c83c 5170 2b3c 45ec 5c3e 678a ab3d
000002a0: e9b8 383e 4854 a03d 42a7 ab3d af1d 403e
000002b0: e7b3 873d 8b39 293d 1360 c23c 24da 8dbd
000002c0: fb8d 69ba 33bb 9e3d 8e3d 1dbc b19c 153d
000002d0: bee5 633d 8b32 bdbd 1bd2 e63d 8119 863d
000002e0: c0db bc3c 40a7 b33b 0e69 c13d a648 573d
000002f0: 5947 93bd 4e2f 64be 8a57 acbd dc5f d2bd
00000300: b579 9a3d 8362 d13d 467a 5f3e 552d b8bd
00000310: fe10 ec3d e8a8 e0bd 4503 d9bd 6640 2abe
00000320: fd75 b4bd 6a7a afbd 8f95 703d 3bdd 11be
00000330: 8be8 7ebd 92ee 4e3d ce05 9d3c 754b 1abc
00000340: 5cc0 193e d7b3 04be b142 9cbb cea1 49bd
00000350: 4372 313e 12b1 a53d 409a d33d 464a b93b
00000360: 915d 533e d467 a3bd 25ba 023e 5fd2 2fbd
00000370: d3c9 a2bd c0ff a33d c825 03be 70f8 063e
00000380: cd1c 86bd 57cd 86bb 326b 7d3d 928d 68bc
00000390: 3c10 ccbd 4a1d 703d 94db 57be af82 52bd
000003a0: ad61 e23c 6c41 513d 67fa 293d d974 67bd
000003b0: 9d5e e9bb 1d42 c53c c1c5 00bd b50c 2f3c
000003c0: c070 493d cd77 d33d ac76 3d3d 5232 d63d
000003d0: 2824 0cbe c517 8fbd 3f25 053e 519d 03be
000003e0: 46f2 76bd 9e91 0bbe 4dd3 603d 2db9 943c
000003f0: 5898 73bd 9637 c73d 204e f43d fcf2 053e

fc3.bias f4 [10]
-0.11078031 -0.057123955 0.031114072 0.018924545 -0.05073663 -0.044208016 0.045455106 0.004937372
-0.075492464 -0.025587616
00000000: cae0 e2bd cffa 69bd f0e2 fe3c a607 9b3c
00000010: 36d1 4fbd 7713 35bd 222f 3a3d aec9 a13b
00000020: cb9b 9abd 1f9d d1bc
