Project3/checkpoints/LeNet5/epoch-0.pth (torch, 243143 bytes, 10 tensors)

conv1.weight f4 [6, 1, 3, 3]
0	0x3ea4db66	0.32198638
1	0x3e878395	0.26467577
2	0x3e6cda22	0.23130086
3	0x3d508141	0.050904516
4	0x3de18a4c	0.11012706
5	0xbd3d20cf	-0.046173867
6	0x3ebd90e1	0.37024596
7	0x3ed78d55	0.42100015
8	0x3e4769c5	0.19473942
9	0xbd2c40da	-0.042054035
10	0x3e864285	0.26222625
11	0xbe411fb3	-0.18859749
12	0x3eb9289b	0.36163792
13	0x3ea4b2cb	0.32167658
14	0x3d21b854	0.03948243
15	0xbddf04a6	-0.108895585
16	0xbddb454f	-0.10706579
17	0xbc8b5b09	-0.017011182
18	0x3f174902	0.59095776
19	0x3f12f5c2	0.57406247
20	0x3f05fcb6	0.5233873
21	0x3f1da8cd	0.61585695
22	0x3f14fb7a	0.5819622
23	0x3ec7409f	0.3891649
24	0x3f02cd6d	0.51094705
25	0x3e74aa8a	0.2389318
26	0xbd30193f	-0.042992827
27	0x3e166c65	0.14689787
28	0x3e58a0e6	0.21155128
29	0xbd66ab1c	-0.056315526
30	0x3c7c6eef	0.015407308
31	0xbe872f07	-0.26403067
32	0x3ca63cf9	0.020292746
33	0x3d3c6a34	0.04599972
34	0xbe7f24e8	-0.24916422
35	0x3cb7206c	0.022354327
36	0x3e354de7	0.17705499
37	0xbe198a85	-0.14994247
38	0x3ea69dd5	0.3254229
39	0x3e95fa65	0.29292598
40	0x3e166f3d	0.14690872
41	0xbe9c2b4d	-0.30501786
42	0xbc993eda	-0.018706728
43	0x3cb05a82	0.021527532
44	0x3e847c47	0.25876066
45	0xbba7511e	-0.0051061055
46	0xbe98ebc9	-0.2986739
47	0xbe62f2b7	-0.22162901
48	0x3e9cb7d4	0.30609
49	0xbe1ee1d8	-0.1551584
50	0x3e236748	0.15957367
51	0x3e212584	0.15736967
52	0x3da4882d	0.08033786
53	0xbe0cd2d4	-0.137523

conv1.bias f4 [6]
0	0xbd89bba8	-0.06725246
1	0x3d871816	0.06596391
2	0x3ecdecc8	0.40219712
3	0x3e316c18	0.1732639
4	0x3e0a5221	0.13507892
5	0xbc8fa72d	-0.01753577

conv2.weight f4 [16, 6, 3, 3]
0	0xbdcf6761	-0.1012714
1	0x3e1f97e7	0.1558529
2	0xbd6d6750	-0.057959855
3	0xbd632f2a	-0.0554649
4	0x3e18383b	0.148652
5	0x3d667d20	0.056271672
6	0x3dd6fbaa	0.1049722
7	0x3dac7bcd	0.084220506
8	0x3dc3a344	0.09552625
9	0x3db3c4c5	0.08777765
10	0x3dd9fd26	0.10643987
11	0x3e1b6c81	0.1517811
12	0x3dc3b573	0.09556093
13	0x3df667bd	0.12031505
14	0x3cec4e51	0.028845938
15	0xbdc2da4f	-0.09514295
16	0x3d9a5dd2	0.07537426
17	0x3e0623e9	0.13099636
18	0xbdfec567	-0.12439995
19	0x3e52398e	0.20529768
20	0x3d7ce92f	0.06174582
21	0x3e1de0ac	0.15417737
22	0x3e866a74	0.26253092
23	0xbda2f7d5	-0.079574265
24	0x3e7fe81d	0.24990888
25	0x3e21462a	0.15749422
26	0xbdfcb709	-0.12339599
27	0xbdddb600	-0.10825729
28	0x3d921fb3	0.071349524
29	0x3e0d5509	0.1380197
30	0xbda56050	-0.08075011
31	0xbdd3107d	-0.10305879
32	0xbdab0eaa	-0.08352406
33	0xbcf05445	-0.029337058
34	0xbd1181ad	-0.03552406
35	0xbd71400c	-0.05889897
36	0x3dd95c61	0.10613323
37	0x3b761d4a	0.0037554079
38	0x3dfe8af4	0.12428847
39	0xbde75c23	-0.112968706
40	0x3e1da570	0.1539514
41	0xbd31b65a	-0.043386795
42	0xbd01d8ee	-0.03170102
43	0x3da3d26c	0.07999119
44	0x3dc72a6c	0.09724888
45	0xbc273a81	-0.0102068195
46	0x3d28a2a2	0.041170724
47	0x3df4880b	0.11940011
48	0xbc964fbd	-0.018348569
49	0xbda55a5b	-0.080738746
50	0x3d8c8c70	0.06862724
51	0xbd5ffdd2	-0.05468542
52	0xbd1ab414	-0.037769392
53	0x3d857a77	0.06517499
54	0xbb149a3e	-0.0022674943
55	0x3db7edd7	0.08980911
56	0xbcf6aa70	-0.030110568
57	0xbd91d280	-0.07120228
58	0x3cc2da36	0.023785692
59	0x3e250ac0	0.16117382
60	0xbd46a5c6	-0.048497938
61	0xbcaaa5d2	-0.020831022
62	0xbcbf3274	-0.023339488
63	0x3dc9ca0e	0.09852992
64	0x3cba2b10	0.022725612
65	0x3dad3f71	0.08459366
66	0xbd16405f	-0.036682483
67	0xbd90dedb	-0.07073756
68	0xbdfb1466	-0.1225975
69	0xbd7a2caf	-0.06107777
70	0xbde410ac	-0.111359924
71	0x3dc28e3f	0.094997875
72	0xbdb50d30	-0.08840406
73	0x3e312eab	0.17302959
74	0x3c311d86	0.010810262
75	0x3d78e21c	0.06076251
76	0x3e2f41b5	0.17114909
77	0xbd71a550	-0.058995545
78	0xbe06a544	-0.13148981
79	0x3d8e308e	0.06942855
80	0x3ccbecc2	0.024893168
81	0x3cc5f70a	0.024165649
82	0x3da02846	0.078201815
83	0x3caa74d8	0.020807669
84	0xbb19cd08	-0.0023468155
85	0xbd6faafb	-0.05851267
86	0x3e096b08	0.13419735
87	0xbc6aff3d	-0.01434308
88	0xbceb1f5a	-0.028701473
89	0xbd80c223	-0.06287029
90	0xbdc0011f	-0.09375214
91	0xb94f2cf3	-0.00019757803
92	0x3d8a876f	0.06764113
93	0x3db230cd	0.08700714
94	0xbda99e86	-0.08282189
95	0x3d89f000	0.067352295
96	0x3d83849e	0.06421779
97	0xbcdc101d	-0.026863152
98	0x3db100f7	0.08642762
99	0x3c39e838	0.011346869
100	0xbde6479b	-0.112441264
101	0x3d79dae6	0.060999773
102	0xbb48b0b8	-0.003062291
103	0xbdf48bf4	-0.119407564
104	0x3d7fd1ac	0.062455818
105	0x3cc10598	0.023562238
106	0xbd132ec7	-0.035933282
107	0xbdd988e3	-0.10621812
108	0xbd88fe8b	-0.06689175
109	0x3e1ea282	0.1549168
110	0x3d2ebb53	0.042659115
111	0x3a6da57c	0.00090654916
112	0x3d0b76a6	0.0340487
113	0xbda77fc9	-0.0817867
114	0xbe0c244a	-0.13685718
115	0x3d959ace	0.07304917
116	0xbcf64278	-0.030060992
117	0xbd720228	-0.059084088
118	0x3d5e599b	0.054284673
119	0xbdad5d86	-0.08465104
120	0x3de5faef	0.112295024
121	0xbd6698e4	-0.05629815
122	0x3e0aca79	0.135538
123	0x3da54be2	0.08071114
124	0xbd739c20	-0.059475064
125	0xbc0365ad	-0.008019847
126	0x3d844fa7	0.06460505
127	0x3e323b68	0.17405474
128	0x3dba5bd1	0.09099544
129	0xbdabb47b	-0.08384033
130	0xbdab0b37	-0.083517484
131	0x3dcb8a20	0.09938455
132	0x3ca4d8a4	0.020122834
133	0xbe1f0ec3	-0.15532975
134	0xbdd59196	-0.10428159
135	0x3d5f35cc	0.054494664
136	0x3d8c6dc6	0.06856875
137	0xbd0866d1	-0.03330118
138	0xbce9c542	-0.028536443
139	0xbb9a2983	-0.0047046556
140	0xbdf1d521	-0.11808229
141	0xba32f3e8	-0.0006826506
142	0x3e0aa7cb	0.1354057
143	0xbd816100	-0.063173294
144	0x3d813d8c	0.06310567
145	0x3dfde5e6	0.12397365
146	0xbc0e8d6d	-0.008700711
147	0x3d29f5ce	0.041494183
148	0xbd591578	-0.05299899
149	0xbd892596	-0.06696622
150	0xbd654122	-0.05597032
151	0x3db3264c	0.08747539
152	0x3dcf4936	0.10121386
153	0xbdddddb6	-0.10833304
154	0xbd9bfeb6	-0.07616942
155	0xbd3a05b3	-0.04541559
156	0x3dee42ec	0.11633858
157	0xbbb42c74	-0.0054984633
158	0xbdc0fcf9	-0.09423251
159	0x3d0e71f8	0.034776658
160	0xbc22c059	-0.009933555
161	0xbdb8fa9e	-0.090321764
162	0xbcdb408c	-0.026764177
163	0x3e025e1b	0.12731211
164	0x3d938ae0	0.07204223
165	0x3da55655	0.08073107
166	0xbdf0ba35	-0.11754266
167	0x3d52abe8	0.051433474
168	0xbd86a2f8	-0.065740526
169	0x3dca3889	0.098740645
170	0xbc599bf2	-0.013281809
171	0x3db8f4a6	0.09031038
172	0xba792f15	-0.0009505612
173	0xbdc71b9e	-0.097220644
174	0xbcd2356f	-0.025660245
175	0xbe083ce4	-0.13304478
176	0xbd44984f	-0.047996815
177	0xbafbcb57	-0.001921038
178	0x3d4c5d86	0.04989388
179	0xbd078573	-0.03308625
180	0x3de9259d	0.11384127
181	0x3c39ca6b	0.011339764
182	0x3c4efd0f	0.012633576
183	0x3d23d4a0	0.039997697
184	0xbbebf799	-0.007201147
185	0xbdb9e1cb	-0.0907627
186	0xbddc9ee2	-0.10772492
187	0x3be795bc	0.0070674103
188	0xbe066613	-0.13124876
189	0xbdb5e99a	-0.088824466
190	0xbd402fb2	-0.046920486
191	0xbd886111	-0.06659139
192	0x3d528d82	0.051404484
193	0xbdf3c857	-0.11903446
194	0xbd9fac34	-0.07796517
195	0xbdd9424c	-0.10608348
196	0x3d26d67a	0.040731885
197	0x3e0952dc	0.13410515
198	0x3dc1afa8	0.09457332
199	0x3d0f7e94	0.035032824
200	0x3c4e56ca	0.012593934
201	0x3c7259a0	0.014791876
202	0xbdba53cd	-0.09098015
203	0xbda2fc75	-0.079583086
204	0x3dcf4f9c	0.10122606
205	0x3d6937b3	0.056937885
206	0xbd72df03	-0.05929471
207	0xbde10f2d	-0.10989223
208	0xbb1a47ca	-0.0023541325
209	0xbe008bf7	-0.12553392
210	0xbd8536f0	-0.06504619
211	0xbd33ba3d	-0.043878783
212	0x3c72cd16	0.014819404
213	0x3d6d8e3b	0.05799697
214	0x3d164980	0.03669119
215	0xbdd0f144	-0.10202268
216	0xbe0344a3	-0.12819152
217	0xbc5086c4	-0.012727443
218	0x3dae3d60	0.085078
219	0xbcc8bfad	-0.02450546
220	0x3dbc6d67	0.09200554
221	0xbda103d9	-0.07862062
222	0x3b9921f5	0.0046732374
223	0xbcb2835d	-0.021791155
224	0xbda39327	-0.079870515
225	0x3ce10b27	0.027471138
226	0x3dda6179	0.10663123
227	0xbd8f7ef0	-0.07006633
228	0x3d0fe983	0.035134804
229	0xbddacdfc	-0.1068382
230	0xbdc4b990	-0.09605706
231	0xbd9716a8	-0.07377368
232	0xbd079198	-0.033097833
233	0x3d1e6b32	0.03867645
234	0x3e13f955	0.14450581
235	0x3e2ed789	0.17074408
236	0x3d44a80f	0.048011836
237	0xbdc41dc3	-0.09575989
238	0xbe0f2bb8	-0.13981521
239	0x3db02c98	0.086022556
240	0xbcefd588	-0.029276624
241	0x3c1e1aaf	0.009649917
242	0xbcc91d87	-0.024550213
243	0xbd208405	-0.039188404
244	0x3daa74ed	0.08323083
245	0xbd6dce36	-0.058057986
246	0x3d2720ee	0.04080289
247	0x3de382b4	0.11108914
248	0x3d2d784e	0.04235106
249	0x3d6329b0	0.05545968
250	0xbd15a114	-0.03653057
251	0xbd2c75e7	-0.042104628
252	0xbbf2d737	-0.0074109095
253	0x3d934006	0.07189946
254	0x3be8e2a5	0.0071070963
255	0xbdda5d64	-0.10662344

conv2.bias f4 [16]
0	0x3c285fc9	0.010276743
1	0x3dd1dd73	0.10247316
2	0xbdc87b2f	-0.097891204
3	0xbdc527ee	-0.096267566
4	0xbdc394a5	-0.09549836
5	0xbd7d3659	-0.061819408
6	0x3dde80ab	0.10864385
7	0xbceb9100	-0.028755665
8	0x3dd3f4b7	0.1034941
9	0x3da33bc9	0.079703875
10	0x3d63f675	0.05565496
11	0x3d18270d	0.037146617
12	0x3e0347cc	0.12820357
13	0xbd2b3c1a	-0.041805364
14	0x3d921996	0.071337864
15	0xbcd105e0	-0.025515497

fc1.weight f4 [120, 400]
0	0x3c369dfc	0.011146065
1	0x3bc6a869	0.0060625565
2	0xbc844e97	-0.016150756
3	0x3d411968	0.04714337
4	0xbd207b95	-0.039180357
5	0xbca4f8ea	-0.020138223
6	0xbb8a3ab4	-0.0042184237
7	0xbb48cf7d	-0.003064125
8	0x3d1dcd5e	0.03852593
9	0xbcf2ed17	-0.029654069
10	0xbc08b044	-0.008342806
11	0xbcb43443	-0.021997577
12	0xbc9fad4c	-0.019491814
13	0xba917106	-0.0011096306
14	0xbc70f2bb	-0.014706309
15	0x3afff4cc	0.0019527911
16	0x3d647cc2	0.05578304
17	0x3d95b34a	0.07309587
18	0x3cd06e3a	0.025443185
19	0x3d1e88e9	0.038704786
20	0x3c77dfef	0.0151290735
21	0x3bc1485f	0.00589852
22	0x3d64c1bf	0.055848833
23	0xbd174ad5	-0.0369366
24	0xbd4db061	-0.050217036
25	0x3a13df15	0.0005640847
26	0x3d42d3a1	0.047565106
27	0x3cb048e3	0.02151913
28	0x3d4492b1	0.04799146
29	0xbca66218	-0.020310447
30	0x3cbec97d	0.023289436
31	0x3b2dca48	0.0026518274
32	0xbc10df2e	-0.008842273
33	0x3d067919	0.03283033
34	0x3cc454a2	0.023966137
35	0x3d021a1c	0.03176318
36	0xbc90275e	-0.017596897
37	0xbc4407fa	-0.011964792
38	0x3ca0e4b8	0.019640312
39	0xbd21fe89	-0.039549384
40	0x3d005e7e	0.031340115
41	0x3c9defcb	0.019279381
42	0xbcede656	-0.029040497
43	0x3bf86f30	0.007581614
44	0xbcea396c	-0.028591834
45	0x3a82859e	0.0009958034
46	0x3cbd3c21	0.02309996
47	0xbd08ae4c	-0.033369347
48	0xbd0483a6	-0.032352112
49	0x3cc1315f	0.023583112
50	0x3c99e68e	0.018786695
51	0x3d2d74a4	0.042347565
52	0x3bcfaf03	0.0063380017
53	0xbd0a8cab	-0.033825558
54	0xbc0217af	-0.007940217
55	0xbd02d413	-0.03194053
56	0xbd4fadcd	-0.05070286
57	0x3d0a4f0c	0.03376679
58	0x3cba4c06	0.022741329
59	0x3d19889d	0.0374838
60	0xbcca35f1	-0.024683924
61	0x3c85a486	0.016313802
62	0x3d0d7764	0.034537688
63	0x3be2d8d9	0.006922823
64	0x3d51bb02	0.051203735
65	0x3d165156	0.03669866
66	0xbd839132	-0.06424178
67	0x3cd22601	0.025652887
68	0xbc99ba21	-0.018765511
69	0x3c6096f9	0.01370787
70	0xbd217a40	-0.039423227
71	0x3d222b41	0.03959203
72	0x3bf1fa59	0.00738458
73	0x3c47ce74	0.012195218
74	0x3d1b70ef	0.0379495
75	0x3c89dc2c	0.016828619
76	0xbd129bf9	-0.03579328
77	0x3cd6ab3c	0.026204698
78	0xbc398524	-0.011323247
79	0x3c93d426	0.018045496
80	0xbcd9b06f	-0.026573388
81	0xbcd4069e	-0.025882062
82	0x3b27b01b	0.0025587145
83	0x3d233b8c	0.03985171
84	0xbd41be0f	-0.047300395
85	0x3bc88521	0.006119386
86	0xb908dc88	-0.00013052125
87	0x3d2f0f39	0.042739127
88	0x3c9e6bf1	0.01933858
89	0x3d059d0c	0.032620475
90	0xbd10d66f	-0.03536075
91	0x3cf8a168	0.030350402
92	0x3cb3144d	0.021860266
93	0xbc976284	-0.018479593
94	0x3d1e8cd2	0.038708515
95	0xbc9829cd	-0.01857462
96	0xbc068531	-0.008210466
97	0x3c2d6afd	0.01058459
98	0xbbed38ae	-0.0072394228
99	0x3cba9900	0.022778034
100	0xbd3b9ade	-0.04580199
101	0xbb71cd09	-0.0036895892
102	0x3c4d0f4a	0.012515852
103	0x3d4a2a41	0.049356703
104	0x3d224dfa	0.039625145
105	0x3c334439	0.0109415585
106	0xbd4848d8	-0.048897594
107	0xbd1a6603	-0.037694942
108	0x3ca09dc0	0.019606471
109	0xbd0e891a	-0.03479872
110	0xbd4091ea	-0.047014154
111	0x3bac225b	0.005253119
112	0xbc3d29b0	-0.011545584
113	0x3d1e7cc5	0.03869321
114	0x3c40e258	0.011772715
115	0x3d3fd20b	0.046831172
116	0x3c2c6360	0.01052174
117	0x3c5fd00c	0.013660442
118	0xbc4dea2d	-0.012568039
119	0x3bb77d86	0.0055996804
120	0x3d2d58c7	0.042320993
121	0xbd4af55c	-0.0495504
122	0x3cde5073	0.02713797
123	0x3c6e8c9d	0.014559892
124	0x3cf6671d	0.030078465
125	0x3d22b2eb	0.03972141
126	0x3d2f00e7	0.04272547
127	0xbc713c5a	-0.014723862
128	0x3c0a0611	0.008424298
129	0xbd49cebb	-0.04926942
130	0xbd3e8ea4	-0.04652275
131	0x3c810c33	0.015752887
132	0x3d864d78	0.06557745
133	0x3d29269f	0.041296598
134	0xbbb77435	-0.0055985698
135	0xbb5d9fd1	-0.0033817182
136	0x3bf4cac1	0.007470459
137	0x3c14b39d	0.009076026
138	0xbd69cf0e	-0.05708223
139	0xbcc500b8	-0.024048194
140	0x3bd26edb	0.0064219064
141	0xbc1ab785	-0.0094431685
142	0x3cdb4284	0.026765116
143	0x3d205f08	0.03915313
144	0x3d2b225c	0.041780815
145	0x3d09ccaf	0.033642467
146	0x3cc9af39	0.024619685
147	0xbc1b2725	-0.009469782
148	0xbcafe290	-0.021470338
149	0x3ca86c53	0.020559466
150	0x39d66b96	0.00040897419
151	0x3cb8b715	0.022548238
152	0xbd371088	-0.0446935
153	0xbbb891b3	-0.005632603
154	0xbc1d75e9	-0.0096106315
155	0xbc4694a5	-0.012120401
156	0xbc8c033a	-0.017091382
157	0xbcc80ddd	-0.024420673
158	0x3cb4b916	0.022060912
159	0xbd0359d5	-0.032068092
160	0xbccb1e10	-0.024794608
161	0x3c7551a2	0.014973076
162	0xbc7b4857	-0.015337071
163	0xbd495834	-0.049156383
164	0x3d01b6de	0.031668536
165	0xbd3cf033	-0.04612751
166	0x3d04e32f	0.03244322
167	0xbc80937f	-0.015695332
168	0xbca2beda	-0.019866396
169	0x3d2b06db	0.041754585
170	0x3c2f9011	0.0107155
171	0x3cb318a4	0.021862336
172	0x3b0d23de	0.002153627
173	0xbcf4568c	-0.029826425
174	0x3d26bc4e	0.040706925
175	0x3cf10c5a	0.029424835
176	0xbc384f41	-0.011249364
177	0x3ca6c18c	0.020355962
178	0xbbb9e0e1	-0.0056725596
179	0xbd4c0812	-0.049812384
180	0xbcac0d96	-0.021002572
181	0x3cab904e	0.020942833
182	0x3d4c86d5	0.049933273
183	0x3d1f6517	0.038914766
184	0xbbb10527	-0.0054022255
185	0x3be75ba1	0.0070604836
186	0xbc820013	-0.015869176
187	0xbd5d996f	-0.054101404
188	0xbbeda122	-0.0072518745
189	0x3b14aecd	0.0022687197
190	0xbca30cc3	-0.019903546
191	0xbd0a012b	-0.03369252
192	0x3d29b56c	0.041432783
193	0xbc4c7f1b	-0.012481476
194	0x3c78faf2	0.015196549
195	0xbccd91e8	-0.025093988
196	0x3c8069ed	0.01567551
197	0x3dabad1b	0.083826266
198	0x3cd479e2	0.025937025
199	0xbb131d1e	-0.0022447775
200	0xbcbf8f93	-0.023383891
201	0x3cb0980a	0.021556873
202	0x3c3d3498	0.011548184
203	0x3d1b3ba0	0.03789866
204	0x3c8a320a	0.016869564
205	0x371a6252	9.202007e-06
206	0x3cbc4af1	0.022984954
207	0x3d7f94bb	0.0623977
208	0xbd50ba21	-0.050958756
209	0x3d23698c	0.03989558
210	0xbd05ea0a	-0.0326939
211	0x3c6cc994	0.014452357
212	0xbcef0f76	-0.029182177
213	0xbcad4a89	-0.021153705
214	0x3d64491f	0.055733796
215	0x3c52cf55	0.012866815
216	0xbcf19a10	-0.029492408
217	0xbbbaea6e	-0.0057042157
218	0xbc1b6139	-0.009483629
219	0xbd2471fa	-0.04014776
220	0x3d4cb8d1	0.049980942
221	0x3d68db11	0.056849543
222	0xbc2fa8a9	-0.010721364
223	0xbbcd37e3	-0.0062627657
224	0x3c9fcab5	0.019505838
225	0xbc1a123f	-0.009403764
226	0x3d21c86d	0.03949778
227	0x3cfd1a05	0.030896196
228	0x3cf5e05c	0.03001421
229	0xbd37554b	-0.044759076
230	0x3d379abd	0.044825304
231	0x3ccaab17	0.024739785
232	0x3cd99b03	0.026563173
233	0xbce48f9a	-0.027900506
234	0xbb965b3b	-0.0045885122
235	0xbd03acff	-0.032147404
236	0x3c52f155	0.012874921
237	0xbd36f7e7	-0.04467001
238	0xbd05568e	-0.032553248
239	0xbd482306	-0.048861526
240	0x3d299d2e	0.041409664
241	0x3cdbbf11	0.026824506
242	0xbd0e4093	-0.03472955
243	0xbd278aba	-0.040903784
244	0x3bbb6e70	0.0057199523
245	0x3ca24dc2	0.019812468
246	0xbcb77bd9	-0.022397922
247	0xbd18b41b	-0.037281137
248	0x3d2a1ffe	0.041534416
249	0xbaba2731	-0.0014202354
250	0x3cabdfd6	0.020980757
251	0x3c81e09b	0.01585417
252	0xbc81a426	-0.015825342
253	0x3d3557c0	0.044273138
254	0xbc991092	-0.01868466
255	0x3cc2d424	0.023782797

fc1.bias f4 [120]
0	0x3d428bc2	0.047496565
1	0x3aac790e	0.0013158636
2	0xbd02a4f9	-0.03189561
3	0x3d399bfb	0.04531477
4	0x3b85e10f	0.004085667
5	0x3d426e2d	0.047468353
6	0x3cd738bb	0.026272168
7	0x3c7ea253	0.015541631
8	0x3ce084ff	0.027407167
9	0xbd1b2929	-0.03788105
10	0xbcbb869f	-0.02289134
11	0x3cf3becf	0.02975407
12	0xbc80f167	-0.01574011
13	0xbb24cb05	-0.0025145423
14	0x3ce82270	0.028336734
15	0x3cf4c86d	0.029880727
16	0xbd2ef7ab	-0.042716663
17	0x3d51dcd5	0.051235992
18	0xbc1479ca	-0.00906224
19	0xbd012815	-0.031532366
20	0x3d0c4df6	0.034254037
21	0xbc07d824	-0.008291278
22	0xbd28386f	-0.041069444
23	0x3c10c5c3	0.008836213
24	0x3c13c8bb	0.009020026
25	0xbd056461	-0.032566432
26	0xbcde3030	-0.027122587
27	0xbcff837a	-0.031190623
28	0x3cfd38d2	0.030910883
29	0x3c1e5c61	0.00966558
30	0xbcae73c6	-0.02129544
31	0x3d25e47c	0.040501103
32	0x3d23816f	0.03991836
33	0xbd2e4889	-0.042549644
34	0x3d06f6a1	0.032950047
35	0x3d4b9817	0.04970559
36	0x3d48ea0e	0.049051337
37	0x3cd0af18	0.025474116
38	0x3cde4b44	0.027135499
39	0x3cce7b47	0.025205268
40	0x3c969ae6	0.018384408
41	0x3bec1e19	0.0072057364
42	0x3d0cb630	0.034353435
43	0xbc87eaba	-0.016591419
44	0xbbf3bfd7	-0.0074386406
45	0x3c619d1c	0.013770368
46	0x3ce75553	0.028238928
47	0x3cb5f8e6	0.02221341
48	0xbd28c3f1	-0.04120249
49	0xbd20bd0a	-0.03924278
50	0xbb76c0a8	-0.0037651453
51	0x3d570352	0.0524934
52	0xbd400ebd	-0.046889056
53	0x3bf7c5b2	0.007561409
54	0x3c3e550b	0.0116169555
55	0x3cc1fca5	0.02368004
56	0x3d1b3650	0.037893593
57	0xbcff2100	-0.031143665
58	0x3d146e4e	0.036238007
59	0xbce09bf2	-0.02741811
60	0x3c762359	0.015023076
61	0xbd2e27ba	-0.042518355
62	0x3bb9b910	0.005667813
63	0xbd11d331	-0.0356018
64	0xbca6415c	-0.020294838
65	0x3ccd49ea	0.025059659
66	0x3d413200	0.047166824
67	0x3cd8525e	0.026406463
68	0xbccd5f22	-0.025069777
69	0x3b357405	0.0027687561
70	0x3cfa683c	0.030567281
71	0x3d257e7f	0.04040384
72	0xba292242	-0.0006451943
73	0x3cb2eda7	0.021841837
74	0xbcd91b1b	-0.026502183
75	0x3c3a548b	0.011372696
76	0xbd142a2e	-0.03617304
77	0xbc9d19d7	-0.01917736
78	0x3d44491c	0.047921285
79	0xbc041110	-0.008060709
80	0xbc964f2a	-0.018348295
81	0xbc94ca2e	-0.018162813
82	0xbd2ad5bd	-0.041707743
83	0xbd1e9db5	-0.03872462
84	0xbc12ee6d	-0.008967978
85	0x3d2756e3	0.040854346
86	0x3d3bdc29	0.045864258
87	0xbd2b4503	-0.04181386
88	0x3c0a4487	0.00843919
89	0x3cd93b5b	0.02651756
90	0xbd0d2d4c	-0.034467027
91	0xbd2ed0e7	-0.042679694
92	0xbb8ec562	-0.004357026
93	0x3d304e79	0.043043587
94	0x3a89297c	0.0010464634
95	0x3d2d2262	0.042269118
96	0xbd11a464	-0.035557166
97	0x3b860fbb	0.0040912307
98	0x3cbab604	0.02279187
99	0xbc0f4cdf	-0.008746355
100	0x3d3780be	0.044800512
101	0xbc3e7ac8	-0.011625953
102	0x3cdfb49e	0.027307805
103	0xba40fac2	-0.00073615846
104	0xbc828b08	-0.015935436
105	0x3cba348d	0.022730136
106	0x3d09987b	0.033592682
107	0x3a772cb2	0.00094289624
108	0xbc7944cd	-0.015214157
109	0xbcc91f1a	-0.024550963
110	0x3c81cc90	0.015844613
111	0xbceb3d32	-0.028715704
112	0x3d3fba33	0.046808433
113	0x3cf68146	0.03009094
114	0xbc095df5	-0.0083842175
115	0xbc00bd88	-0.007857688
116	0x3c8e1a4d	0.017346526
117	0xbca1f1db	-0.019768646
118	0xbb6ce18a	-0.0036145174
119	0xbcb85f0a	-0.022506256

fc2.weight f4 [84, 120]
0	0x3bf2dde6	0.0074117063
1	0x3d1c7099	0.03819332
2	0x3deb35fb	0.11484905
3	0xbc2bcf9d	-0.010486511
4	0x3da24f97	0.07925337
5	0xbda1b31b	-0.0789549
6	0x3c910bbd	0.017705793
7	0xbd9e8450	-0.0774008
8	0x3c8d04bc	0.017214172
9	0xbda8fbd4	-0.082511574
10	0xbd8bb340	-0.068212986
11	0x3d820d39	0.06350178
12	0x3c9f1800	0.019420624
13	0x3da3f805	0.0800629
14	0x3d3f4d33	0.046704482
15	0x3db45425	0.08805112
16	0x3d1f2ac4	0.038859144
17	0xbc2264d3	-0.009911734
18	0xbdadee0a	-0.08492668
19	0x3ca7d2a3	0.020486182
20	0xbd679f1a	-0.056548215
21	0xbc38fe66	-0.011291122
22	0x3cb0ec51	0.02159706
23	0xbd052b57	-0.032512035
24	0x3d2b746f	0.041859087
25	0xbd4a50c8	-0.049393445
26	0xbc2c050e	-0.010499252
27	0x3d3c90e5	0.04603662
28	0x3d25e3b8	0.040500373
29	0x3d9ecb60	0.077536345
30	0xbc7ec4f4	-0.015549887
31	0xbdb616cd	-0.08891068
32	0x3db23fff	0.087036125
33	0x3d957dda	0.07299395
34	0x3b5df908	0.0033870358
35	0xbd8e0cf5	-0.06936065
36	0x3c1e99e1	0.009680242
37	0x3cc26eea	0.023734529
38	0x3d49f4b2	0.049305625
39	0xbd70243c	-0.058628306
40	0xbd944006	-0.07238774
41	0x3cf94691	0.030429156
42	0xbd87203b	-0.06597944
43	0x3d101d0c	0.03518395
44	0x3ce44e3a	0.027869333
45	0x3d93944f	0.07206022
46	0xbd35b05e	-0.04435765
47	0xbd99e3ba	-0.075141385
48	0xbcbd175c	-0.023082428
49	0xbd171c3b	-0.036892157
50	0xbc8766cd	-0.016528511
51	0x3cb0cf65	0.021583268
52	0xbd91cf3f	-0.07119607
53	0x3c9c833f	0.019105552
54	0x3dbb1a28	0.09135848
55	0xbd921875	-0.07133571
56	0xbb3778c9	-0.0027995578
57	0x3c7d341d	0.015454319
58	0x3cd11575	0.025522927
59	0x3d187cb3	0.037228297
60	0xbcecc490	-0.028902322
61	0x3d93ed9c	0.07223055
62	0x3d81b862	0.06333996
63	0xbd897a45	-0.06712774
64	0x3dc79cfe	0.09746741
65	0x3d6d4761	0.0579294
66	0xbd8e26be	-0.06940983
67	0xbd271297	-0.040789213
68	0xbc0be83f	-0.0085392585
69	0x3d922e24	0.07137707
70	0xbd324cbc	-0.04353021
71	0x3dade214	0.084903866
72	0x3dcfbfcc	0.10144004
73	0xbab894c0	-0.0014082417
74	0xbdcf982c	-0.10136446
75	0x3a764bdb	0.00093954586
76	0xbdc2d04a	-0.09512384
77	0xbd8c6bcf	-0.068565
78	0x3cb6ab76	0.022298556
79	0xbd897adb	-0.06712886
80	0xba2c2ea3	-0.0006568229
81	0xbc4bd4da	-0.0124408845
82	0xbda65229	-0.081211396
83	0x3c9cd4de	0.019144472
84	0xbc436c29	-0.011927643
85	0xbd215408	-0.03938678
86	0x3d03e44c	0.032200143
87	0xbd0453e3	-0.032306563
88	0xbca0a94c	-0.019611977
89	0x3d9337a7	0.07188349
90	0x3d9d1e9e	0.076718554
91	0xbd1fa885	-0.038979072
92	0x3da6117e	0.08108805
93	0x3d937d35	0.07201616
94	0x3d91192f	0.070848815
95	0x3ced7e33	0.02899084
96	0x3d907b09	0.07054717
97	0xbd1a5976	-0.037682973
98	0xbd802624	-0.06257275
99	0x3d1322fd	0.03592204
100	0x3d47cdd4	0.048780277
101	0x3da2aab8	0.07942718
102	0xbd219b15	-0.03945454
103	0x3da5b9c9	0.08092076
104	0xbcffcd00	-0.031225681
105	0xbd07b924	-0.03313555
106	0xbcadd7d7	-0.021221085
107	0xbd9fd1d8	-0.078036964
108	0xbd93bada	-0.072133735
109	0xbd05a3e6	-0.03262701
110	0xbd6f271d	-0.05838691
111	0xbd685105	-0.05671789
112	0xbd85960f	-0.06522762
113	0x3daf871f	0.08570694
114	0x3cd94634	0.026522733
115	0xbd0b7db1	-0.034055416
116	0xbcfd65ee	-0.030932393
117	0x3d134928	0.03595844
118	0x3d42113f	0.04737973
119	0xbcc83e47	-0.024443759
120	0x3d00ac38	0.03141424
121	0xbd07339d	-0.033008207
122	0xbd6d465c	-0.057928428
123	0x3d8bb5e9	0.06821806
124	0xbd5fa5f5	-0.05460163
125	0xbcc97642	-0.024592523
126	0xbdb741db	-0.08948108
127	0x3d121db3	0.035672855
128	0x3c6217b2	0.013799595
129	0x3bb93378	0.0056518875
130	0xbd167864	-0.036735907
131	0xbc2d1469	-0.010563948
132	0x3d87147f	0.06595706
133	0xbc45bdb3	-0.012069154
134	0xba8ed2ee	-0.0010896602
135	0xbbfa9a11	-0.0076477607
136	0xbbfdb764	-0.007742809
137	0xbd05f3c0	-0.03270316
138	0x3d2074a8	0.039173752
139	0xbc17cbf8	-0.0092649385
140	0x3d808188	0.06274706
141	0xbd817ee4	-0.063230306
142	0xbc7cd211	-0.015430943
143	0xbd932cc3	-0.07186272
144	0x3d1a52b6	0.037676536
145	0xbdb59626	-0.08866529
146	0x3d7f3058	0.062301964
147	0xbd5a8429	-0.053348694
148	0x3d92bfd7	0.07165497
149	0xbc1e098b	-0.00964583
150	0xbdb8480c	-0.08998117
151	0xbdb756da	-0.089521125
152	0xbca2973f	-0.01984751
153	0x3dacc1b1	0.08435381
154	0xba5fd9b4	-0.0008539215
155	0x3cb979b4	0.02264104
156	0xbd335e6c	-0.04379122
157	0xbc0f8cc7	-0.008761591
158	0x3d3e89a2	0.046517976
159	0x3d5e2403	0.054233562
160	0xbc30a435	-0.0107813375
161	0xbd78e30d	-0.060763407
162	0x3baa4dba	0.005197254
163	0xbd3c30c6	-0.04594495
164	0x3cb1a051	0.02168289
165	0xbcf40774	-0.02978871
166	0x3d552a0e	0.05204206
167	0x3d3a329a	0.045458414
168	0xbcf870e2	-0.030327264
169	0x3d1cb894	0.038261965
170	0x3d83439c	0.0640938
171	0x3db7e071	0.08978356
172	0x3d97b9c2	0.07408477
173	0x3db89b4a	0.09013994
174	0x3c329abd	0.01090115
175	0xbc7b6ea3	-0.015346202
176	0xbda00ea7	-0.07815295
177	0xbd85405e	-0.06506418
178	0x3d779fc4	0.0604551
179	0xbccf8159	-0.025330232
180	0xbd8d8572	-0.06910218
181	0xbd9d1d8b	-0.076716505
182	0x3cf36016	0.029708903
183	0x3d6e396c	0.05816023
184	0xbd04b411	-0.032398287
185	0xbbde50ee	-0.00678455
186	0x3db29df6	0.08721535
187	0xbb36e884	-0.0027909586
188	0xbd47d9c2	-0.048791654
189	0xbd0753aa	-0.033038773
190	0x3d8cacc7	0.06868892
191	0xbcbe88bb	-0.023258558
192	0xbd28f519	-0.04124937
193	0x3c84513c	0.016152017
194	0x3dba7d10	0.09105885
195	0xbd8bc424	-0.0682452
196	0xbd384e5a	-0.044996597
197	0x3d19adf8	0.037519425
198	0x3bcc178b	0.0062283925
199	0xbdb89b0b	-0.09013947
200	0xbd321f18	-0.043486685
201	0x3b837bfb	0.0040125824
202	0xbbc975bc	-0.0061480682
203	0x3d994a52	0.074848786
204	0xbd2c2bf6	-0.042034112
205	0x3c5bb0ef	0.0134088835
206	0xbdab9fb1	-0.08380068
207	0x3c81d987	0.015850795
208	0x3da86f9c	0.08224413
209	0x3d8148be	0.063127026
210	0xbd8b4225	-0.067997254
211	0x3d4b94bf	0.049702402
212	0xbd0f4ebb	-0.034987193
213	0xbd5733ee	-0.05253976
214	0xbd9eecdb	-0.0776002
215	0xbd845db3	-0.06463184
216	0x3dac126c	0.08401951
217	0xbdb1b116	-0.086763546
218	0xbca4e35b	-0.020127943
219	0xbd2a6f37	-0.04160997
220	0xbd9f50a6	-0.07779054
221	0xbd5e3ad6	-0.05425533
222	0xbd8da5d2	-0.06916393
223	0xbd95b0c8	-0.07309109
224	0xbc9512aa	-0.018197376
225	0x3cebcdbe	0.028784629
226	0xbb16d5a2	-0.0023015519
227	0x3c9d2ca9	0.019186335
228	0x3d188995	0.037240583
229	0xb93da56d	-0.0001808607
230	0x3ce2b917	0.027676148
231	0xbc4458f1	-0.011984096
232	0xbd04712c	-0.03233449
233	0x3d49474e	0.049140267
234	0x3bc3c54f	0.0059744488
235	0xbd76a92a	-0.06021992
236	0xbd7a00ed	-0.06103604
237	0xbd5d79f9	-0.0540714
238	0x3db49072	0.08816613
239	0xbd32bb6c	-0.04363577
240	0xbd5a7f41	-0.053344015
241	0xbcaa935f	-0.020822225
242	0x3d568b1b	0.052378755
243	0x3d9d1970	0.076708674
244	0x3bd3c8cf	0.0064631472
245	0x3da6f8d0	0.08152926
246	0x3d13552a	0.03596989
247	0x3decac59	0.1155631
248	0x3da51d55	0.08062235
249	0x3d9203ea	0.07129653
250	0xbd3f20ab	-0.046662014
251	0x3dd77486	0.10520272
252	0x3d866e54	0.06564012
253	0x3d5bf2f5	0.0536985
254	0x3d0d4ebc	0.034498915
255	0xbc3c671f	-0.011499195

fc2.bias f4 [84]
0	0xbc421cc6	-0.01184768
1	0x3d8d927a	0.06912704
2	0x3abfdf5b	0.0014638709
3	0x3d1d6334	0.038424686
4	0x3c7989bc	0.015230592
5	0x3d80192e	0.06254803
6	0x3c7e41f8	0.015518658
7	0x3d818c80	0.063256264
8	0xbdb3e10e	-0.0878316
9	0xbd1de4ee	-0.038548402
10	0x3d5796a1	0.052633885
11	0x3d115b25	0.035487313
12	0x3d195eb6	0.03744384
13	0x3b3d50e4	0.0028887326
14	0x3cd205bc	0.0256375
15	0xbdb59ba8	-0.0886758
16	0xbd10087c	-0.03516434
17	0x3c5532db	0.013012613
18	0x3d60a5fc	0.054845795
19	0x3d5dad48	0.054120332
20	0xbc276466	-0.010216808
21	0x3d0f5b18	0.034998983
22	0xbd5f241f	-0.054477807
23	0xbc124578	-0.008927695
24	0xbc42490a	-0.011858234
25	0xbd1ba773	-0.03800149
26	0xbbadb8b2	-0.0053015584
27	0x3dcfe20e	0.101505384
28	0x3dcd5c8d	0.10027418
29	0x3cb8545a	0.02250116
30	0x3c1d0fbd	0.009586272
31	0xbc387b04	-0.011259798
32	0xbd07cf02	-0.033156402
33	0x3d2e6c2f	0.04258364
34	0xbd6669a1	-0.05625308
35	0x3acb724c	0.0015521734
36	0xbcca16b9	-0.024669038
37	0xbcbca23d	-0.02302658
38	0xbd12e5ee	-0.03586381
39	0x3d9c6720	0.07636857
40	0x3c93bf0e	0.018035438
41	0xbce10e07	-0.02747251
42	0x3d0ca188	0.034333736
43	0xbd9a3669	-0.07529909
44	0x3d45c3d8	0.048282474
45	0xbcb54b29	-0.022130566
46	0xbd6bf0b3	-0.057602596
47	0xbc3ec67b	-0.011644001
48	0x3cc1fde1	0.02368063
49	0xbc6d85c2	-0.014497222
50	0xbd03e33c	-0.03219913
51	0x3d36b788	0.044608623
52	0xbc57ed69	-0.013179162
53	0x3d1cb797	0.038261022
54	0xbd874f85	-0.06606964
55	0xbda62107	-0.08111768
56	0xbd1942aa	-0.03741709
57	0x3da1711c	0.07882902
58	0x3d4bc1e5	0.04974546
59	0x3d4fb5d0	0.0507105
60	0xbd8f31ab	-0.06991895
61	0x3d3f7dc7	0.04675081
62	0x3cec24ce	0.028826144
63	0xbd4df10f	-0.05027872
64	0x3dc0a08c	0.09405622
65	0x39c238ba	0.00037044828
66	0x3bb62eca	0.005559777
67	0x3dbdfa73	0.09276285
68	0x3d66aecd	0.056319047
69	0x3d8e6406	0.06952672
70	0xbd9f1b4b	-0.077688776
71	0xbd8c62d1	-0.06854785
72	0xbdad0cd6	-0.08449714
73	0xbdb5a737	-0.08869784
74	0x3caaded0	0.020858198
75	0x3d0f4a4d	0.034982968
76	0x3ac688d6	0.0015146981
77	0x3d2c4b9f	0.042064305
78	0x3c9fe509	0.019518392
79	0xbc013798	-0.00788679
80	0x3c0648f8	0.008196108
81	0x3d13073d	0.035895575
82	0xbd81df1d	-0.063413836
83	0x3c2d00c8	0.010559268

fc3.weight f4 [10, 84]
0	0xbbfb75ba	-0.007673946
1	0x3db82537	0.08991473
2	0xbe749842	-0.23886207
3	0x3da33081	0.07968236
4	0xbc5a09fb	-0.013308044
5	0xbdd70e7d	-0.1050081
6	0x3e17eaa8	0.14835608
7	0xbdc8ac86	-0.09798531
8	0x3c7b5755	0.015340646
9	0xbdd32b85	-0.10311035
10	0xbc52a6b1	-0.012857125
11	0x3dcb99c7	0.0994144
12	0x3c7c1197	0.015385053
13	0x3d6268e6	0.05527582
14	0xbde97a2d	-0.11400256
15	0x3b658874	0.003502396
16	0xbcc76bb9	-0.024343358
17	0xbe0f431c	-0.13990444
18	0x3d34433d	0.044009436
19	0xbc8c0734	-0.017093278
20	0x3b80f873	0.0039358675
21	0xbe228c2d	-0.15873785
22	0xbd9dedc0	-0.07711363
23	0x3c4a2ebf	0.012340247
24	0x3cf34702	0.029696945
25	0x3d8d70c7	0.06906276
26	0x3a848397	0.0010110018
27	0xbdc5a768	-0.09651071
28	0xbe180ef6	-0.14849457
29	0xbe50f856	-0.20407233
30	0x3d192ffa	0.03739927
31	0xbe0f92b3	-0.14020805
32	0xbd1d1734	-0.038352206
33	0x3dd9dc19	0.106376834
34	0x3cb4e57f	0.022082089
35	0xbd953429	-0.072853394
36	0xbcdbd243	-0.026833659
37	0xbd8b443c	-0.06800124
38	0xbdd5375c	-0.104109496
39	0xbc972889	-0.018451946
40	0xbd68816f	-0.056764062
41	0xbd974339	-0.073858686
42	0xbb6be5a1	-0.0035995024
43	0xbdf158bc	-0.11784503
44	0xbdbf39a3	-0.09337165
45	0xbde52b85	-0.11189941
46	0x3e06c325	0.13160379
47	0x3e3e9fd6	0.1861566
48	0x3cf32b9c	0.02968388
49	0x3d2e064d	0.042486478
50	0x3d293039	0.041305754
51	0xbd074c2f	-0.03303164
52	0xbdd833cf	-0.10556757
53	0x3de1db4a	0.11028154
54	0xbd0d88b7	-0.03455421
55	0x3d94ae62	0.072598234
56	0xbd5049bf	-0.05085158
57	0x3cbf02ce	0.023316767
58	0x3db0b1c7	0.08627658
59	0x3d4d7efd	0.050169934
60	0x3d04a3d0	0.032382786
61	0xbd84cdf8	-0.06484598
62	0x3e260951	0.16214491
63	0x3ddeec5b	0.10884925
64	0xbc800df8	-0.01563166
65	0x3c643d0e	0.013930572
66	0x3d7ca6ef	0.061682638
67	0x3ded3d5e	0.115839705
68	0xbdc6e312	-0.09711279
69	0xbc8256ce	-0.015910532
70	0xbe002f57	-0.12518059
71	0xbdb44dcd	-0.08803902
72	0x3df46350	0.11933005
73	0x3e08c1df	0.13355206
74	0x3dd41aab	0.10356649
75	0x3e15bbbb	0.14622395
76	0x3dc1252c	0.09430918
77	0x3d8c9c1f	0.06865715
78	0x3e223af3	0.158428
79	0xbd1840d2	-0.037171192
80	0x3e088877	0.13333307
81	0x3d4a3a41	0.04937196
82	0x3d200269	0.0390648
83	0x3ddd06eb	0.10792335
84	0x3d8a16af	0.06742608
85	0xbcb13687	-0.021632446
86	0x3e30deb8	0.1727246
87	0xbca4ffee	-0.020141568
88	0xbdbb82ad	-0.09155784
89	0xbd88c995	-0.06679074
90	0x3d3c2595	0.04593428
91	0x3d6d8b28	0.057994038
92	0x3df96e34	0.12179223
93	0x3df96331	0.121771224
94	0x3be88305	0.007095697
95	0xbdf89d71	-0.121394046
96	0xbe17ca5d	-0.14823289
97	0xbcfe1946	-0.03101791
98	0x3e04c3ff	0.12965392
99	0x3d844a15	0.064594425
100	0x3e0342ab	0.128184
101	0x3c186ab1	0.009302781
102	0x3d3e6019	0.046478365
103	0x3dbff7ef	0.093734615
104	0x3dd28a1b	0.10280248
105	0x3e091701	0.13387682
106	0x3cdf8649	0.027285712
107	0x3c1ac9b8	0.009447508
108	0xbdb3eb9c	-0.08785173
109	0xbd877ccb	-0.06615599
110	0xbdfc1ec6	-0.12310557
111	0x3cfd15c9	0.030894177
112	0xbd61aa1b	-0.055093866
113	0xbd835c33	-0.0641407
114	0xbe06f6c3	-0.1318007
115	0x3c9a3d0a	0.018827934
116	0xbe093b3a	-0.134015
117	0xbd9777c5	-0.07395891
118	0xbd8de0c8	-0.06927639
119	0xbdb8a92c	-0.09016642
120	0x3c7a49b3	0.01527636
121	0x3d590e60	0.052992225
122	0x3da9a3de	0.08283208
123	0x3d7e61db	0.06210504
124	0xbd73f739	-0.05956194
125	0x3da33981	0.079699524
126	0xbd89ef6c	-0.06735119
127	0xbe1b104d	-0.15142937
128	0xbdb1ea8a	-0.08687313
129	0x3e4cba39	0.19992913
130	0xbbdd6f95	-0.0067576864
131	0x3cbfa7c0	0.02339542
132	0x3e0450bb	0.12921421
133	0xbda1c804	-0.07899478
134	0xbe435d19	-0.19078483
135	0x3d806732	0.06269683
136	0x3d1fa9d3	0.038980316
137	0xbd416ccd	-0.0472229
138	0xbce61de6	-0.028090429
139	0x3d84deb2	0.06487788
140	0xbd90b49e	-0.070657
141	0x3d8281ea	0.063724354
142	0x3c3d5ca6	0.011557734
143	0xbd392385	-0.04519989
144	0xbd247edf	-0.040160056
145	0xbe071eaf	-0.13195299
146	0x3d24731d	0.040148843
147	0xbcc7791e	-0.024349745
148	0x3dc13dc2	0.094356075
149	0x3e15eee3	0.1464191
150	0xbd6f9065	-0.058487315
151	0x3d5e7d02	0.054318435
152	0x3d7260e9	0.059174452
153	0xbe11f72d	-0.14254446
154	0xbd23db47	-0.04000404
155	0xbdaea1bf	-0.08526944
156	0xbdf62542	-0.12018825
157	0xbdb721e9	-0.08942015
158	0xbc303ad0	-0.0107562095
159	0x3c9485c6	0.018130194
160	0xbe7b6022	-0.2454839
161	0x3cb6bf50	0.022308022
162	0xbdfac12a	-0.12243874
163	0xbc71bab4	-0.014753986
164	0x3c0bb6da	0.008527482
165	0x3b43f011	0.002989773
166	0x3e4e3c73	0.20140247
167	0x3d9443fc	0.072395295
168	0x3e1b379e	0.15157935
169	0x3d271ac0	0.040796995
170	0x3d971926	0.073778436
171	0x3e2089e4	0.15677601
172	0x3d3675b7	0.044545855
173	0x3d295c2e	0.041347675
174	0x3ca8668e	0.020556714
175	0xbd928a3c	-0.07155272
176	0x3c67a93a	0.014139468
177	0x3d61316e	0.05497878
178	0xbc1b8035	-0.009491016
179	0x3c286c24	0.010279689
180	0x3d84632a	0.064642265
181	0xbd938fe8	-0.07205182
182	0x3dc233f2	0.09482564
183	0x3d86cabf	0.065816395
184	0x3b82b26b	0.0039885542
185	0xbd1742bb	-0.036928874
186	0x3da5e40c	0.08100137
187	0x3d5748a6	0.052559517
188	0xbd975ace	-0.073903665
189	0xbe24e19e	-0.16101691
190	0xbdcc582b	-0.09977754
191	0xbdd25fdc	-0.1027219
192	0x3d9a87a0	0.075454
193	0x3dcb789b	0.09935113
194	0x3e315aff	0.17319869
195	0xbddb1ad9	-0.1069848
196	0x3dbec065	0.0931404
197	0xbdba6c9b	-0.09102746
198	0xbdc65e56	-0.09685962
199	0xbe046d0c	-0.12932223
200	0xbde95f84	-0.11395171
201	0xbdb1465d	-0.08655999
202	0x3d620ac3	0.055186044
203	0xbddb4220	-0.10705972
204	0xbd7b18c2	-0.061302908
205	0x3d4ef5bf	0.05052733
206	0x3c8c4ad8	0.017125532
207	0x3b61038c	0.003433439
208	0x3da3f0ce	0.08004914
209	0xbdd9a235	-0.10626642
210	0xbc775193	-0.015095132
211	0xbd7f13c9	-0.062274728
212	0x3e04740a	0.1293489
213	0x3dcc9515	0.09989373
214	0x3db3d8ad	0.08781562
215	0xbd24e895	-0.04026087
216	0x3e38fbd9	0.18064822
217	0xbda5851a	-0.08082028
218	0x3e177caa	0.1479365
219	0xb9edbb35	-0.00045343643
220	0xbd33a254	-0.04385598
221	0x3caad2c7	0.02085246
222	0xbdc3faae	-0.09569298
223	0x3df7f00f	0.121063344
224	0xbcf9c21c	-0.030488066
225	0xbc7a9bf8	-0.015295975
226	0x3d75fd31	0.060055915
227	0xbc5ae1df	-0.013359516
228	0xbdcd35ca	-0.10020025
229	0x3d4116e0	0.047140956
230	0xbe238ef2	-0.15972498
231	0xbd3ec6a2	-0.04657615
232	0x3c6d9c4c	0.014502596
233	0x3da1a541	0.07892848
234	0x3d2a244b	0.041538518
235	0xbd701d56	-0.058621727
236	0xbc311560	-0.010808319
237	0x3c36220e	0.011116518
238	0xbcc0c466	-0.02353115
239	0x3c02588c	0.0079556815
240	0x3d473859	0.04863772
241	0x3dbbaa6f	0.09163367
242	0x3d377882	0.04479266
243	0x3d948250	0.07251418
244	0xbdd69c97	-0.10479086
245	0xbd995db4	-0.074885756
246	0x3dd3683a	0.10322614
247	0xbde63f65	-0.1124256
248	0xbd8d55cd	-0.06901131
249	0xbddc8c44	-0.10768941
250	0x3d22e81b	0.039772134
251	0x3d1eb333	0.038745116
252	0xbd72e25d	-0.059297908
253	0x3dc215fe	0.09476851
254	0x3d9e673e	0.07734536
255	0x3de04f09	0.10952575

fc3.bias f4 [10]
0	0xbdd94674	-0.10609141
1	0xbd5577d7	-0.05211624
2	0x3ce20e42	0.02759469
3	0x3c9f7ecf	0.019469647
4	0xbd2fc09e	-0.042908303
5	0xbd4ea5b3	-0.05045099
6	0x3d3ee074	0.046600774
7	0x3b888159	0.00416581
8	0xbda6ac9c	-0.081383914
9	0xbce87889	-0.028377788
